{"format": "graph-model", "generatedBy": "2.20.0", "convertedBy": "TensorFlow.js Converter v4.22.0", "signature": {"inputs": {"input_layer_2": {"name": "input_layer_2:0", "dtype": "DT_FLOAT", "tensorShape": {"dim": [{"size": "-1"}, {"size": "224"}, {"size": "224"}, {"size": "3"}]}}}, "outputs": {"output_0": {"name": "Identity:0", "dtype": "DT_FLOAT", "tensorShape": {"dim": [{"size": "-1"}, {"size": "4"}]}}}}, "modelTopology": {"node": [{"name": "StatefulPartitionedCall/functional_1_1/mobilenetv2_1.00_224_1/block_15_project_BN_1/batchnorm/sub", "op": "Const", "attr": {"value": {"tensor": {"dtype": "DT_FLOAT", "tensorShape": {"dim": [{"size": "160"}]}}}, "dtype": {"type": "DT_FLOAT"}}}, {"name": "StatefulPartitionedCall/functional_1_1/mobilenetv2_1.00_224_1/block_14_project_BN_1/batchnorm/sub", "op": "Const", "attr": {"value": {"tensor": {"dtype": "DT_FLOAT", "tensorShape": {"dim": [{"size": "160"}]}}}, "dtype": {"type": "DT_FLOAT"}}}, {"name": "StatefulPartitionedCall/functional_1_1/mobilenetv2_1.00_224_1/block_12_project_BN_1/batchnorm/sub", "op": "Const", "attr": {"value": {"tensor": {"dtype": "DT_FLOAT", "tensorShape": {"dim": [{"size": "96"}]}}}, "dtype": {"type": "DT_FLOAT"}}}, {"name": "StatefulPartitionedCall/functional_1_1/mobilenetv2_1.00_224_1/block_11_project_BN_1/batchnorm/sub", "op": "Const", "attr": {"value": {"tensor": {"dtype": "DT_FLOAT", "tensorShape": {"dim": [{"size": "96"}]}}}, "dtype": {"type": "DT_FLOAT"}}}, {"name": "StatefulPartitionedCall/functional_1_1/mobilenetv2_1.00_224_1/block_9_project_BN_1/batchnorm/sub", "op": "Const", "attr": {"value": {"tensor": {"dtype": "DT_FLOAT", "tensorShape": {"dim": [{"size": "64"}]}}}, "dtype": {"type": "DT_FLOAT"}}}, {"name": "StatefulPartitionedCall/functional_1_1/mobilenetv2_1.00_224_1/block_8_project_BN_1/batchnorm/sub", "op": "Const", "attr": {"value": {"tensor": {"dtype": "DT_FLOAT", "tensorShape": {"dim": [{"size": "64"}]}}}, "dtype": {"type": "DT_FLOAT"}}}, {"name": "StatefulPartitionedCall/functional_1_1/mobilenetv2_1.00_224_1/block_7_project_BN_1/batchnorm/sub", "op": "Const", "attr": {"value": {"tensor": {"dtype": "DT_FLOAT", "tensorShape": {"dim": [{"size": "64"}]}}}, "dtype": {"type": "DT_FLOAT"}}}, {"name": "StatefulPartitionedCall/functional_1_1/mobilenetv2_1.00_224_1/block_5_project_BN_1/batchnorm/sub", "op": "Const", "attr": {"value": {"tensor": {"dtype": "DT_FLOAT", "tensorShape": {"dim": [{"size": "32"}]}}}, "dtype": {"type": "DT_FLOAT"}}}, {"name": "StatefulPartitionedCall/functional_1_1/mobilenetv2_1.00_224_1/block_4_project_BN_1/batchnorm/sub", "op": "Const", "attr": {"value": {"tensor": {"dtype": "DT_FLOAT", "tensorShape": {"dim": [{"size": "32"}]}}}, "dtype": {"type": "DT_FLOAT"}}}, {"name": "StatefulPartitionedCall/functional_1_1/mobilenetv2_1.00_224_1/block_2_project_BN_1/batchnorm/sub", "op": "Const", "attr": {"value": {"tensor": {"dtype": "DT_FLOAT", "tensorShape": {"dim": [{"size": "24"}]}}}, "dtype": {"type": "DT_FLOAT"}}}, {"name": "StatefulPartitionedCall/functional_1_1/rescaling_1/Cast/x", "op": "Const", "attr": {"value": {"tensor": {"dtype": "DT_FLOAT", "tensorShape": {}}}, "dtype": {"type": "DT_FLOAT"}}}, {"name": "StatefulPartitionedCall/functional_1_1/rescaling_1/Cast_1", "op": "Const", "attr": {"value": {"tensor": {"dtype": "DT_FLOAT", "tensorShape": {}}}, "dtype": {"type": "DT_FLOAT"}}}, {"name": "StatefulPartitionedCall/functional_1_1/mobilenetv2_1.00_224_1/Conv1_1/convolution/merged_input", "op": "Const", "attr": {"value": {"tensor": {"dtype": "DT_FLOAT", "tensorShape": {"dim": [{"size": "3"}, {"size": "3"}, {"size": "3"}, {"size": "32"}]}}}, "dtype": {"type": "DT_FLOAT"}}}, {"name": "StatefulPartitionedCall/functional_1_1/mobilenetv2_1.00_224_1/bn_Conv1_1/batchnorm/sub", "op": "Const", "attr": {"value": {"tensor": {"dtype": "DT_FLOAT", "tensorShape": {"dim": [{"size": "32"}]}}}, "dtype": {"type": "DT_FLOAT"}}}, {"name": "StatefulPartitionedCall/functional_1_1/mobilenetv2_1.00_224_1/expanded_conv_depthwise_1/depthwise/ReadVariableOp", "op": "Const", "attr": {"value": {"tensor": {"dtype": "DT_FLOAT", "tensorShape": {"dim": [{"size": "3"}, {"size": "3"}, {"size": "32"}, {"size": "1"}]}}}, "dtype": {"type": "DT_FLOAT"}}}, {"name": "StatefulPartitionedCall/functional_1_1/mobilenetv2_1.00_224_1/expanded_conv_depthwise_BN_1/batchnorm/mul", "op": "Const", "attr": {"value": {"tensor": {"dtype": "DT_FLOAT", "tensorShape": {"dim": [{"size": "32"}]}}}, "dtype": {"type": "DT_FLOAT"}}}, {"name": "StatefulPartitionedCall/functional_1_1/mobilenetv2_1.00_224_1/expanded_conv_depthwise_BN_1/batchnorm/sub", "op": "Const", "attr": {"value": {"tensor": {"dtype": "DT_FLOAT", "tensorShape": {"dim": [{"size": "32"}]}}}, "dtype": {"type": "DT_FLOAT"}}}, {"name": "StatefulPartitionedCall/functional_1_1/mobilenetv2_1.00_224_1/expanded_conv_project_1/convolution/merged_input", "op": "Const", "attr": {"value": {"tensor": {"dtype": "DT_FLOAT", "tensorShape": {"dim": [{"size": "1"}, {"size": "1"}, {"size": "32"}, {"size": "16"}]}}}, "dtype": {"type": "DT_FLOAT"}}}, {"name": "StatefulPartitionedCall/functional_1_1/mobilenetv2_1.00_224_1/expanded_conv_project_BN_1/batchnorm/sub", "op": "Const", "attr": {"value": {"tensor": {"dtype": "DT_FLOAT", "tensorShape": {"dim": [{"size": "16"}]}}}, "dtype": {"type": "DT_FLOAT"}}}, {"name": "StatefulPartitionedCall/functional_1_1/mobilenetv2_1.00_224_1/block_1_expand_1/convolution/merged_input", "op": "Const", "attr": {"value": {"tensor": {"dtype": "DT_FLOAT", "tensorShape": {"dim": [{"size": "1"}, {"size": "1"}, {"size": "16"}, {"size": "96"}]}}}, "dtype": {"type": "DT_FLOAT"}}}, {"name": "StatefulPartitionedCall/functional_1_1/mobilenetv2_1.00_224_1/block_1_expand_BN_1/batchnorm/sub", "op": "Const", "attr": {"value": {"tensor": {"dtype": "DT_FLOAT", "tensorShape": {"dim": [{"size": "96"}]}}}, "dtype": {"type": "DT_FLOAT"}}}, {"name": "StatefulPartitionedCall/functional_1_1/mobilenetv2_1.00_224_1/block_1_pad_1/Const", "op": "Const", "attr": {"value": {"tensor": {"dtype": "DT_INT32", "tensorShape": {"dim": [{"size": "4"}, {"size": "2"}]}}}, "dtype": {"type": "DT_INT32"}}}, {"name": "StatefulPartitionedCall/functional_1_1/mobilenetv2_1.00_224_1/block_1_depthwise_1/depthwise/ReadVariableOp", "op": "Const", "attr": {"value": {"tensor": {"dtype": "DT_FLOAT", "tensorShape": {"dim": [{"size": "3"}, {"size": "3"}, {"size": "96"}, {"size": "1"}]}}}, "dtype": {"type": "DT_FLOAT"}}}, {"name": "StatefulPartitionedCall/functional_1_1/mobilenetv2_1.00_224_1/block_1_depthwise_BN_1/batchnorm/mul", "op": "Const", "attr": {"value": {"tensor": {"dtype": "DT_FLOAT", "tensorShape": {"dim": [{"size": "96"}]}}}, "dtype": {"type": "DT_FLOAT"}}}, {"name": "StatefulPartitionedCall/functional_1_1/mobilenetv2_1.00_224_1/block_1_depthwise_BN_1/batchnorm/sub", "op": "Const", "attr": {"value": {"tensor": {"dtype": "DT_FLOAT", "tensorShape": {"dim": [{"size": "96"}]}}}, "dtype": {"type": "DT_FLOAT"}}}, {"name": "StatefulPartitionedCall/functional_1_1/mobilenetv2_1.00_224_1/block_1_project_1/convolution/merged_input", "op": "Const", "attr": {"value": {"tensor": {"dtype": "DT_FLOAT", "tensorShape": {"dim": [{"size": "1"}, {"size": "1"}, {"size": "96"}, {"size": "24"}]}}}, "dtype": {"type": "DT_FLOAT"}}}, {"name": "StatefulPartitionedCall/functional_1_1/mobilenetv2_1.00_224_1/block_1_project_BN_1/batchnorm/sub", "op": "Const", "attr": {"value": {"tensor": {"dtype": "DT_FLOAT", "tensorShape": {"dim": [{"size": "24"}]}}}, "dtype": {"type": "DT_FLOAT"}}}, {"name": "StatefulPartitionedCall/functional_1_1/mobilenetv2_1.00_224_1/block_2_expand_1/convolution/merged_input", "op": "Const", "attr": {"value": {"tensor": {"dtype": "DT_FLOAT", "tensorShape": {"dim": [{"size": "1"}, {"size": "1"}, {"size": "24"}, {"size": "144"}]}}}, "dtype": {"type": "DT_FLOAT"}}}, {"name": "StatefulPartitionedCall/functional_1_1/mobilenetv2_1.00_224_1/block_2_expand_BN_1/batchnorm/sub", "op": "Const", "attr": {"value": {"tensor": {"dtype": "DT_FLOAT", "tensorShape": {"dim": [{"size": "144"}]}}}, "dtype": {"type": "DT_FLOAT"}}}, {"name": "StatefulPartitionedCall/functional_1_1/mobilenetv2_1.00_224_1/block_2_depthwise_1/depthwise/ReadVariableOp", "op": "Const", "attr": {"value": {"tensor": {"dtype": "DT_FLOAT", "tensorShape": {"dim": [{"size": "3"}, {"size": "3"}, {"size": "144"}, {"size": "1"}]}}}, "dtype": {"type": "DT_FLOAT"}}}, {"name": "StatefulPartitionedCall/functional_1_1/mobilenetv2_1.00_224_1/block_2_depthwise_BN_1/batchnorm/mul", "op": "Const", "attr": {"value": {"tensor": {"dtype": "DT_FLOAT", "tensorShape": {"dim": [{"size": "144"}]}}}, "dtype": {"type": "DT_FLOAT"}}}, {"name": "StatefulPartitionedCall/functional_1_1/mobilenetv2_1.00_224_1/block_2_depthwise_BN_1/batchnorm/sub", "op": "Const", "attr": {"value": {"tensor": {"dtype": "DT_FLOAT", "tensorShape": {"dim": [{"size": "144"}]}}}, "dtype": {"type": "DT_FLOAT"}}}, {"name": "StatefulPartitionedCall/functional_1_1/mobilenetv2_1.00_224_1/block_2_project_1/convolution/merged_input", "op": "Const", "attr": {"value": {"tensor": {"dtype": "DT_FLOAT", "tensorShape": {"dim": [{"size": "1"}, {"size": "1"}, {"size": "144"}, {"size": "24"}]}}}, "dtype": {"type": "DT_FLOAT"}}}, {"name": "StatefulPartitionedCall/functional_1_1/mobilenetv2_1.00_224_1/block_3_expand_1/convolution/merged_input", "op": "Const", "attr": {"value": {"tensor": {"dtype": "DT_FLOAT", "tensorShape": {"dim": [{"size": "1"}, {"size": "1"}, {"size": "24"}, {"size": "144"}]}}}, "dtype": {"type": "DT_FLOAT"}}}, {"name": "StatefulPartitionedCall/functional_1_1/mobilenetv2_1.00_224_1/block_3_expand_BN_1/batchnorm/sub", "op": "Const", "attr": {"value": {"tensor": {"dtype": "DT_FLOAT", "tensorShape": {"dim": [{"size": "144"}]}}}, "dtype": {"type": "DT_FLOAT"}}}, {"name": "StatefulPartitionedCall/functional_1_1/mobilenetv2_1.00_224_1/block_3_pad_1/Const", "op": "Const", "attr": {"value": {"tensor": {"dtype": "DT_INT32", "tensorShape": {"dim": [{"size": "4"}, {"size": "2"}]}}}, "dtype": {"type": "DT_INT32"}}}, {"name": "StatefulPartitionedCall/functional_1_1/mobilenetv2_1.00_224_1/block_3_depthwise_1/depthwise/ReadVariableOp", "op": "Const", "attr": {"value": {"tensor": {"dtype": "DT_FLOAT", "tensorShape": {"dim": [{"size": "3"}, {"size": "3"}, {"size": "144"}, {"size": "1"}]}}}, "dtype": {"type": "DT_FLOAT"}}}, {"name": "StatefulPartitionedCall/functional_1_1/mobilenetv2_1.00_224_1/block_3_depthwise_BN_1/batchnorm/mul", "op": "Const", "attr": {"value": {"tensor": {"dtype": "DT_FLOAT", "tensorShape": {"dim": [{"size": "144"}]}}}, "dtype": {"type": "DT_FLOAT"}}}, {"name": "StatefulPartitionedCall/functional_1_1/mobilenetv2_1.00_224_1/block_3_depthwise_BN_1/batchnorm/sub", "op": "Const", "attr": {"value": {"tensor": {"dtype": "DT_FLOAT", "tensorShape": {"dim": [{"size": "144"}]}}}, "dtype": {"type": "DT_FLOAT"}}}, {"name": "StatefulPartitionedCall/functional_1_1/mobilenetv2_1.00_224_1/block_3_project_1/convolution/merged_input", "op": "Const", "attr": {"value": {"tensor": {"dtype": "DT_FLOAT", "tensorShape": {"dim": [{"size": "1"}, {"size": "1"}, {"size": "144"}, {"size": "32"}]}}}, "dtype": {"type": "DT_FLOAT"}}}, {"name": "StatefulPartitionedCall/functional_1_1/mobilenetv2_1.00_224_1/block_3_project_BN_1/batchnorm/sub", "op": "Const", "attr": {"value": {"tensor": {"dtype": "DT_FLOAT", "tensorShape": {"dim": [{"size": "32"}]}}}, "dtype": {"type": "DT_FLOAT"}}}, {"name": "StatefulPartitionedCall/functional_1_1/mobilenetv2_1.00_224_1/block_4_expand_1/convolution/merged_input", "op": "Const", "attr": {"value": {"tensor": {"dtype": "DT_FLOAT", "tensorShape": {"dim": [{"size": "1"}, {"size": "1"}, {"size": "32"}, {"size": "192"}]}}}, "dtype": {"type": "DT_FLOAT"}}}, {"name": "StatefulPartitionedCall/functional_1_1/mobilenetv2_1.00_224_1/block_4_expand_BN_1/batchnorm/sub", "op": "Const", "attr": {"value": {"tensor": {"dtype": "DT_FLOAT", "tensorShape": {"dim": [{"size": "192"}]}}}, "dtype": {"type": "DT_FLOAT"}}}, {"name": "StatefulPartitionedCall/functional_1_1/mobilenetv2_1.00_224_1/block_4_depthwise_1/depthwise/ReadVariableOp", "op": "Const", "attr": {"value": {"tensor": {"dtype": "DT_FLOAT", "tensorShape": {"dim": [{"size": "3"}, {"size": "3"}, {"size": "192"}, {"size": "1"}]}}}, "dtype": {"type": "DT_FLOAT"}}}, {"name": "StatefulPartitionedCall/functional_1_1/mobilenetv2_1.00_224_1/block_4_depthwise_BN_1/batchnorm/mul", "op": "Const", "attr": {"value": {"tensor": {"dtype": "DT_FLOAT", "tensorShape": {"dim": [{"size": "192"}]}}}, "dtype": {"type": "DT_FLOAT"}}}, {"name": "StatefulPartitionedCall/functional_1_1/mobilenetv2_1.00_224_1/block_4_depthwise_BN_1/batchnorm/sub", "op": "Const", "attr": {"value": {"tensor": {"dtype": "DT_FLOAT", "tensorShape": {"dim": [{"size": "192"}]}}}, "dtype": {"type": "DT_FLOAT"}}}, {"name": "StatefulPartitionedCall/functional_1_1/mobilenetv2_1.00_224_1/block_4_project_1/convolution/merged_input", "op": "Const", "attr": {"value": {"tensor": {"dtype": "DT_FLOAT", "tensorShape": {"dim": [{"size": "1"}, {"size": "1"}, {"size": "192"}, {"size": "32"}]}}}, "dtype": {"type": "DT_FLOAT"}}}, {"name": "StatefulPartitionedCall/functional_1_1/mobilenetv2_1.00_224_1/block_5_expand_1/convolution/merged_input", "op": "Const", "attr": {"value": {"tensor": {"dtype": "DT_FLOAT", "tensorShape": {"dim": [{"size": "1"}, {"size": "1"}, {"size": "32"}, {"size": "192"}]}}}, "dtype": {"type": "DT_FLOAT"}}}, {"name": "StatefulPartitionedCall/functional_1_1/mobilenetv2_1.00_224_1/block_5_expand_BN_1/batchnorm/sub", "op": "Const", "attr": {"value": {"tensor": {"dtype": "DT_FLOAT", "tensorShape": {"dim": [{"size": "192"}]}}}, "dtype": {"type": "DT_FLOAT"}}}, {"name": "StatefulPartitionedCall/functional_1_1/mobilenetv2_1.00_224_1/block_5_depthwise_1/depthwise/ReadVariableOp", "op": "Const", "attr": {"value": {"tensor": {"dtype": "DT_FLOAT", "tensorShape": {"dim": [{"size": "3"}, {"size": "3"}, {"size": "192"}, {"size": "1"}]}}}, "dtype": {"type": "DT_FLOAT"}}}, {"name": "StatefulPartitionedCall/functional_1_1/mobilenetv2_1.00_224_1/block_5_depthwise_BN_1/batchnorm/mul", "op": "Const", "attr": {"value": {"tensor": {"dtype": "DT_FLOAT", "tensorShape": {"dim": [{"size": "192"}]}}}, "dtype": {"type": "DT_FLOAT"}}}, {"name": "StatefulPartitionedCall/functional_1_1/mobilenetv2_1.00_224_1/block_5_depthwise_BN_1/batchnorm/sub", "op": "Const", "attr": {"value": {"tensor": {"dtype": "DT_FLOAT", "tensorShape": {"dim": [{"size": "192"}]}}}, "dtype": {"type": "DT_FLOAT"}}}, {"name": "StatefulPartitionedCall/functional_1_1/mobilenetv2_1.00_224_1/block_5_project_1/convolution/merged_input", "op": "Const", "attr": {"value": {"tensor": {"dtype": "DT_FLOAT", "tensorShape": {"dim": [{"size": "1"}, {"size": "1"}, {"size": "192"}, {"size": "32"}]}}}, "dtype": {"type": "DT_FLOAT"}}}, {"name": "StatefulPartitionedCall/functional_1_1/mobilenetv2_1.00_224_1/block_6_expand_1/convolution/merged_input", "op": "Const", "attr": {"value": {"tensor": {"dtype": "DT_FLOAT", "tensorShape": {"dim": [{"size": "1"}, {"size": "1"}, {"size": "32"}, {"size": "192"}]}}}, "dtype": {"type": "DT_FLOAT"}}}, {"name": "StatefulPartitionedCall/functional_1_1/mobilenetv2_1.00_224_1/block_6_expand_BN_1/batchnorm/sub", "op": "Const", "attr": {"value": {"tensor": {"dtype": "DT_FLOAT", "tensorShape": {"dim": [{"size": "192"}]}}}, "dtype": {"type": "DT_FLOAT"}}}, {"name": "StatefulPartitionedCall/functional_1_1/mobilenetv2_1.00_224_1/block_6_pad_1/Const", "op": "Const", "attr": {"value": {"tensor": {"dtype": "DT_INT32", "tensorShape": {"dim": [{"size": "4"}, {"size": "2"}]}}}, "dtype": {"type": "DT_INT32"}}}, {"name": "StatefulPartitionedCall/functional_1_1/mobilenetv2_1.00_224_1/block_6_depthwise_1/depthwise/ReadVariableOp", "op": "Const", "attr": {"value": {"tensor": {"dtype": "DT_FLOAT", "tensorShape": {"dim": [{"size": "3"}, {"size": "3"}, {"size": "192"}, {"size": "1"}]}}}, "dtype": {"type": "DT_FLOAT"}}}, {"name": "StatefulPartitionedCall/functional_1_1/mobilenetv2_1.00_224_1/block_6_depthwise_BN_1/batchnorm/mul", "op": "Const", "attr": {"value": {"tensor": {"dtype": "DT_FLOAT", "tensorShape": {"dim": [{"size": "192"}]}}}, "dtype": {"type": "DT_FLOAT"}}}, {"name": "StatefulPartitionedCall/functional_1_1/mobilenetv2_1.00_224_1/block_6_depthwise_BN_1/batchnorm/sub", "op": "Const", "attr": {"value": {"tensor": {"dtype": "DT_FLOAT", "tensorShape": {"dim": [{"size": "192"}]}}}, "dtype": {"type": "DT_FLOAT"}}}, {"name": "StatefulPartitionedCall/functional_1_1/mobilenetv2_1.00_224_1/block_6_project_1/convolution/merged_input", "op": "Const", "attr": {"value": {"tensor": {"dtype": "DT_FLOAT", "tensorShape": {"dim": [{"size": "1"}, {"size": "1"}, {"size": "192"}, {"size": "64"}]}}}, "dtype": {"type": "DT_FLOAT"}}}, {"name": "StatefulPartitionedCall/functional_1_1/mobilenetv2_1.00_224_1/block_6_project_BN_1/batchnorm/sub", "op": "Const", "attr": {"value": {"tensor": {"dtype": "DT_FLOAT", "tensorShape": {"dim": [{"size": "64"}]}}}, "dtype": {"type": "DT_FLOAT"}}}, {"name": "StatefulPartitionedCall/functional_1_1/mobilenetv2_1.00_224_1/block_7_expand_1/convolution/merged_input", "op": "Const", "attr": {"value": {"tensor": {"dtype": "DT_FLOAT", "tensorShape": {"dim": [{"size": "1"}, {"size": "1"}, {"size": "64"}, {"size": "384"}]}}}, "dtype": {"type": "DT_FLOAT"}}}, {"name": "StatefulPartitionedCall/functional_1_1/mobilenetv2_1.00_224_1/block_7_expand_BN_1/batchnorm/sub", "op": "Const", "attr": {"value": {"tensor": {"dtype": "DT_FLOAT", "tensorShape": {"dim": [{"size": "384"}]}}}, "dtype": {"type": "DT_FLOAT"}}}, {"name": "StatefulPartitionedCall/functional_1_1/mobilenetv2_1.00_224_1/block_7_depthwise_1/depthwise/ReadVariableOp", "op": "Const", "attr": {"value": {"tensor": {"dtype": "DT_FLOAT", "tensorShape": {"dim": [{"size": "3"}, {"size": "3"}, {"size": "384"}, {"size": "1"}]}}}, "dtype": {"type": "DT_FLOAT"}}}, {"name": "StatefulPartitionedCall/functional_1_1/mobilenetv2_1.00_224_1/block_7_depthwise_BN_1/batchnorm/mul", "op": "Const", "attr": {"value": {"tensor": {"dtype": "DT_FLOAT", "tensorShape": {"dim": [{"size": "384"}]}}}, "dtype": {"type": "DT_FLOAT"}}}, {"name": "StatefulPartitionedCall/functional_1_1/mobilenetv2_1.00_224_1/block_7_depthwise_BN_1/batchnorm/sub", "op": "Const", "attr": {"value": {"tensor": {"dtype": "DT_FLOAT", "tensorShape": {"dim": [{"size": "384"}]}}}, "dtype": {"type": "DT_FLOAT"}}}, {"name": "StatefulPartitionedCall/functional_1_1/mobilenetv2_1.00_224_1/block_7_project_1/convolution/merged_input", "op": "Const", "attr": {"value": {"tensor": {"dtype": "DT_FLOAT", "tensorShape": {"dim": [{"size": "1"}, {"size": "1"}, {"size": "384"}, {"size": "64"}]}}}, "dtype": {"type": "DT_FLOAT"}}}, {"name": "StatefulPartitionedCall/functional_1_1/mobilenetv2_1.00_224_1/block_8_expand_1/convolution/merged_input", "op": "Const", "attr": {"value": {"tensor": {"dtype": "DT_FLOAT", "tensorShape": {"dim": [{"size": "1"}, {"size": "1"}, {"size": "64"}, {"size": "384"}]}}}, "dtype": {"type": "DT_FLOAT"}}}, {"name": "StatefulPartitionedCall/functional_1_1/mobilenetv2_1.00_224_1/block_8_expand_BN_1/batchnorm/sub", "op": "Const", "attr": {"value": {"tensor": {"dtype": "DT_FLOAT", "tensorShape": {"dim": [{"size": "384"}]}}}, "dtype": {"type": "DT_FLOAT"}}}, {"name": "StatefulPartitionedCall/functional_1_1/mobilenetv2_1.00_224_1/block_8_depthwise_1/depthwise/ReadVariableOp", "op": "Const", "attr": {"value": {"tensor": {"dtype": "DT_FLOAT", "tensorShape": {"dim": [{"size": "3"}, {"size": "3"}, {"size": "384"}, {"size": "1"}]}}}, "dtype": {"type": "DT_FLOAT"}}}, {"name": "StatefulPartitionedCall/functional_1_1/mobilenetv2_1.00_224_1/block_8_depthwise_BN_1/batchnorm/mul", "op": "Const", "attr": {"value": {"tensor": {"dtype": "DT_FLOAT", "tensorShape": {"dim": [{"size": "384"}]}}}, "dtype": {"type": "DT_FLOAT"}}}, {"name": "StatefulPartitionedCall/functional_1_1/mobilenetv2_1.00_224_1/block_8_depthwise_BN_1/batchnorm/sub", "op": "Const", "attr": {"value": {"tensor": {"dtype": "DT_FLOAT", "tensorShape": {"dim": [{"size": "384"}]}}}, "dtype": {"type": "DT_FLOAT"}}}, {"name": "StatefulPartitionedCall/functional_1_1/mobilenetv2_1.00_224_1/block_8_project_1/convolution/merged_input", "op": "Const", "attr": {"value": {"tensor": {"dtype": "DT_FLOAT", "tensorShape": {"dim": [{"size": "1"}, {"size": "1"}, {"size": "384"}, {"size": "64"}]}}}, "dtype": {"type": "DT_FLOAT"}}}, {"name": "StatefulPartitionedCall/functional_1_1/mobilenetv2_1.00_224_1/block_9_expand_1/convolution/merged_input", "op": "Const", "attr": {"value": {"tensor": {"dtype": "DT_FLOAT", "tensorShape": {"dim": [{"size": "1"}, {"size": "1"}, {"size": "64"}, {"size": "384"}]}}}, "dtype": {"type": "DT_FLOAT"}}}, {"name": "StatefulPartitionedCall/functional_1_1/mobilenetv2_1.00_224_1/block_9_expand_BN_1/batchnorm/sub", "op": "Const", "attr": {"value": {"tensor": {"dtype": "DT_FLOAT", "tensorShape": {"dim": [{"size": "384"}]}}}, "dtype": {"type": "DT_FLOAT"}}}, {"name": "StatefulPartitionedCall/functional_1_1/mobilenetv2_1.00_224_1/block_9_depthwise_1/depthwise/ReadVariableOp", "op": "Const", "attr": {"value": {"tensor": {"dtype": "DT_FLOAT", "tensorShape": {"dim": [{"size": "3"}, {"size": "3"}, {"size": "384"}, {"size": "1"}]}}}, "dtype": {"type": "DT_FLOAT"}}}, {"name": "StatefulPartitionedCall/functional_1_1/mobilenetv2_1.00_224_1/block_9_depthwise_BN_1/batchnorm/mul", "op": "Const", "attr": {"value": {"tensor": {"dtype": "DT_FLOAT", "tensorShape": {"dim": [{"size": "384"}]}}}, "dtype": {"type": "DT_FLOAT"}}}, {"name": "StatefulPartitionedCall/functional_1_1/mobilenetv2_1.00_224_1/block_9_depthwise_BN_1/batchnorm/sub", "op": "Const", "attr": {"value": {"tensor": {"dtype": "DT_FLOAT", "tensorShape": {"dim": [{"size": "384"}]}}}, "dtype": {"type": "DT_FLOAT"}}}, {"name": "StatefulPartitionedCall/functional_1_1/mobilenetv2_1.00_224_1/block_9_project_1/convolution/merged_input", "op": "Const", "attr": {"value": {"tensor": {"dtype": "DT_FLOAT", "tensorShape": {"dim": [{"size": "1"}, {"size": "1"}, {"size": "384"}, {"size": "64"}]}}}, "dtype": {"type": "DT_FLOAT"}}}, {"name": "StatefulPartitionedCall/functional_1_1/mobilenetv2_1.00_224_1/block_10_expand_1/convolution/merged_input", "op": "Const", "attr": {"value": {"tensor": {"dtype": "DT_FLOAT", "tensorShape": {"dim": [{"size": "1"}, {"size": "1"}, {"size": "64"}, {"size": "384"}]}}}, "dtype": {"type": "DT_FLOAT"}}}, {"name": "StatefulPartitionedCall/functional_1_1/mobilenetv2_1.00_224_1/block_10_expand_BN_1/batchnorm/sub", "op": "Const", "attr": {"value": {"tensor": {"dtype": "DT_FLOAT", "tensorShape": {"dim": [{"size": "384"}]}}}, "dtype": {"type": "DT_FLOAT"}}}, {"name": "StatefulPartitionedCall/functional_1_1/mobilenetv2_1.00_224_1/block_10_depthwise_1/depthwise/ReadVariableOp", "op": "Const", "attr": {"value": {"tensor": {"dtype": "DT_FLOAT", "tensorShape": {"dim": [{"size": "3"}, {"size": "3"}, {"size": "384"}, {"size": "1"}]}}}, "dtype": {"type": "DT_FLOAT"}}}, {"name": "StatefulPartitionedCall/functional_1_1/mobilenetv2_1.00_224_1/block_10_depthwise_BN_1/batchnorm/mul", "op": "Const", "attr": {"value": {"tensor": {"dtype": "DT_FLOAT", "tensorShape": {"dim": [{"size": "384"}]}}}, "dtype": {"type": "DT_FLOAT"}}}, {"name": "StatefulPartitionedCall/functional_1_1/mobilenetv2_1.00_224_1/block_10_depthwise_BN_1/batchnorm/sub", "op": "Const", "attr": {"value": {"tensor": {"dtype": "DT_FLOAT", "tensorShape": {"dim": [{"size": "384"}]}}}, "dtype": {"type": "DT_FLOAT"}}}, {"name": "StatefulPartitionedCall/functional_1_1/mobilenetv2_1.00_224_1/block_10_project_1/convolution/merged_input", "op": "Const", "attr": {"value": {"tensor": {"dtype": "DT_FLOAT", "tensorShape": {"dim": [{"size": "1"}, {"size": "1"}, {"size": "384"}, {"size": "96"}]}}}, "dtype": {"type": "DT_FLOAT"}}}, {"name": "StatefulPartitionedCall/functional_1_1/mobilenetv2_1.00_224_1/block_10_project_BN_1/batchnorm/sub", "op": "Const", "attr": {"value": {"tensor": {"dtype": "DT_FLOAT", "tensorShape": {"dim": [{"size": "96"}]}}}, "dtype": {"type": "DT_FLOAT"}}}, {"name": "StatefulPartitionedCall/functional_1_1/mobilenetv2_1.00_224_1/block_11_expand_1/convolution/merged_input", "op": "Const", "attr": {"value": {"tensor": {"dtype": "DT_FLOAT", "tensorShape": {"dim": [{"size": "1"}, {"size": "1"}, {"size": "96"}, {"size": "576"}]}}}, "dtype": {"type": "DT_FLOAT"}}}, {"name": "StatefulPartitionedCall/functional_1_1/mobilenetv2_1.00_224_1/block_11_expand_BN_1/batchnorm/sub", "op": "Const", "attr": {"value": {"tensor": {"dtype": "DT_FLOAT", "tensorShape": {"dim": [{"size": "576"}]}}}, "dtype": {"type": "DT_FLOAT"}}}, {"name": "StatefulPartitionedCall/functional_1_1/mobilenetv2_1.00_224_1/block_11_depthwise_1/depthwise/ReadVariableOp", "op": "Const", "attr": {"value": {"tensor": {"dtype": "DT_FLOAT", "tensorShape": {"dim": [{"size": "3"}, {"size": "3"}, {"size": "576"}, {"size": "1"}]}}}, "dtype": {"type": "DT_FLOAT"}}}, {"name": "StatefulPartitionedCall/functional_1_1/mobilenetv2_1.00_224_1/block_11_depthwise_BN_1/batchnorm/mul", "op": "Const", "attr": {"value": {"tensor": {"dtype": "DT_FLOAT", "tensorShape": {"dim": [{"size": "576"}]}}}, "dtype": {"type": "DT_FLOAT"}}}, {"name": "StatefulPartitionedCall/functional_1_1/mobilenetv2_1.00_224_1/block_11_depthwise_BN_1/batchnorm/sub", "op": "Const", "attr": {"value": {"tensor": {"dtype": "DT_FLOAT", "tensorShape": {"dim": [{"size": "576"}]}}}, "dtype": {"type": "DT_FLOAT"}}}, {"name": "StatefulPartitionedCall/functional_1_1/mobilenetv2_1.00_224_1/block_11_project_1/convolution/merged_input", "op": "Const", "attr": {"value": {"tensor": {"dtype": "DT_FLOAT", "tensorShape": {"dim": [{"size": "1"}, {"size": "1"}, {"size": "576"}, {"size": "96"}]}}}, "dtype": {"type": "DT_FLOAT"}}}, {"name": "StatefulPartitionedCall/functional_1_1/mobilenetv2_1.00_224_1/block_12_expand_1/convolution/merged_input", "op": "Const", "attr": {"value": {"tensor": {"dtype": "DT_FLOAT", "tensorShape": {"dim": [{"size": "1"}, {"size": "1"}, {"size": "96"}, {"size": "576"}]}}}, "dtype": {"type": "DT_FLOAT"}}}, {"name": "StatefulPartitionedCall/functional_1_1/mobilenetv2_1.00_224_1/block_12_expand_BN_1/batchnorm/sub", "op": "Const", "attr": {"value": {"tensor": {"dtype": "DT_FLOAT", "tensorShape": {"dim": [{"size": "576"}]}}}, "dtype": {"type": "DT_FLOAT"}}}, {"name": "StatefulPartitionedCall/functional_1_1/mobilenetv2_1.00_224_1/block_12_depthwise_1/depthwise/ReadVariableOp", "op": "Const", "attr": {"value": {"tensor": {"dtype": "DT_FLOAT", "tensorShape": {"dim": [{"size": "3"}, {"size": "3"}, {"size": "576"}, {"size": "1"}]}}}, "dtype": {"type": "DT_FLOAT"}}}, {"name": "StatefulPartitionedCall/functional_1_1/mobilenetv2_1.00_224_1/block_12_depthwise_BN_1/batchnorm/mul", "op": "Const", "attr": {"value": {"tensor": {"dtype": "DT_FLOAT", "tensorShape": {"dim": [{"size": "576"}]}}}, "dtype": {"type": "DT_FLOAT"}}}, {"name": "StatefulPartitionedCall/functional_1_1/mobilenetv2_1.00_224_1/block_12_depthwise_BN_1/batchnorm/sub", "op": "Const", "attr": {"value": {"tensor": {"dtype": "DT_FLOAT", "tensorShape": {"dim": [{"size": "576"}]}}}, "dtype": {"type": "DT_FLOAT"}}}, {"name": "StatefulPartitionedCall/functional_1_1/mobilenetv2_1.00_224_1/block_12_project_1/convolution/merged_input", "op": "Const", "attr": {"value": {"tensor": {"dtype": "DT_FLOAT", "tensorShape": {"dim": [{"size": "1"}, {"size": "1"}, {"size": "576"}, {"size": "96"}]}}}, "dtype": {"type": "DT_FLOAT"}}}, {"name": "StatefulPartitionedCall/functional_1_1/mobilenetv2_1.00_224_1/block_13_expand_1/convolution/merged_input", "op": "Const", "attr": {"value": {"tensor": {"dtype": "DT_FLOAT", "tensorShape": {"dim": [{"size": "1"}, {"size": "1"}, {"size": "96"}, {"size": "576"}]}}}, "dtype": {"type": "DT_FLOAT"}}}, {"name": "StatefulPartitionedCall/functional_1_1/mobilenetv2_1.00_224_1/block_13_expand_BN_1/batchnorm/sub", "op": "Const", "attr": {"value": {"tensor": {"dtype": "DT_FLOAT", "tensorShape": {"dim": [{"size": "576"}]}}}, "dtype": {"type": "DT_FLOAT"}}}, {"name": "StatefulPartitionedCall/functional_1_1/mobilenetv2_1.00_224_1/block_13_pad_1/Const", "op": "Const", "attr": {"value": {"tensor": {"dtype": "DT_INT32", "tensorShape": {"dim": [{"size": "4"}, {"size": "2"}]}}}, "dtype": {"type": "DT_INT32"}}}, {"name": "StatefulPartitionedCall/functional_1_1/mobilenetv2_1.00_224_1/block_13_depthwise_1/depthwise/ReadVariableOp", "op": "Const", "attr": {"value": {"tensor": {"dtype": "DT_FLOAT", "tensorShape": {"dim": [{"size": "3"}, {"size": "3"}, {"size": "576"}, {"size": "1"}]}}}, "dtype": {"type": "DT_FLOAT"}}}, {"name": "StatefulPartitionedCall/functional_1_1/mobilenetv2_1.00_224_1/block_13_depthwise_BN_1/batchnorm/mul", "op": "Const", "attr": {"value": {"tensor": {"dtype": "DT_FLOAT", "tensorShape": {"dim": [{"size": "576"}]}}}, "dtype": {"type": "DT_FLOAT"}}}, {"name": "StatefulPartitionedCall/functional_1_1/mobilenetv2_1.00_224_1/block_13_depthwise_BN_1/batchnorm/sub", "op": "Const", "attr": {"value": {"tensor": {"dtype": "DT_FLOAT", "tensorShape": {"dim": [{"size": "576"}]}}}, "dtype": {"type": "DT_FLOAT"}}}, {"name": "StatefulPartitionedCall/functional_1_1/mobilenetv2_1.00_224_1/block_13_project_1/convolution/merged_input", "op": "Const", "attr": {"value": {"tensor": {"dtype": "DT_FLOAT", "tensorShape": {"dim": [{"size": "1"}, {"size": "1"}, {"size": "576"}, {"size": "160"}]}}}, "dtype": {"type": "DT_FLOAT"}}}, {"name": "StatefulPartitionedCall/functional_1_1/mobilenetv2_1.00_224_1/block_13_project_BN_1/batchnorm/sub", "op": "Const", "attr": {"value": {"tensor": {"dtype": "DT_FLOAT", "tensorShape": {"dim": [{"size": "160"}]}}}, "dtype": {"type": "DT_FLOAT"}}}, {"name": "StatefulPartitionedCall/functional_1_1/mobilenetv2_1.00_224_1/block_14_expand_1/convolution/merged_input", "op": "Const", "attr": {"value": {"tensor": {"dtype": "DT_FLOAT", "tensorShape": {"dim": [{"size": "1"}, {"size": "1"}, {"size": "160"}, {"size": "960"}]}}}, "dtype": {"type": "DT_FLOAT"}}}, {"name": "StatefulPartitionedCall/functional_1_1/mobilenetv2_1.00_224_1/block_14_expand_BN_1/batchnorm/sub", "op": "Const", "attr": {"value": {"tensor": {"dtype": "DT_FLOAT", "tensorShape": {"dim": [{"size": "960"}]}}}, "dtype": {"type": "DT_FLOAT"}}}, {"name": "StatefulPartitionedCall/functional_1_1/mobilenetv2_1.00_224_1/block_14_depthwise_1/depthwise/ReadVariableOp", "op": "Const", "attr": {"value": {"tensor": {"dtype": "DT_FLOAT", "tensorShape": {"dim": [{"size": "3"}, {"size": "3"}, {"size": "960"}, {"size": "1"}]}}}, "dtype": {"type": "DT_FLOAT"}}}, {"name": "StatefulPartitionedCall/functional_1_1/mobilenetv2_1.00_224_1/block_14_depthwise_BN_1/batchnorm/mul", "op": "Const", "attr": {"value": {"tensor": {"dtype": "DT_FLOAT", "tensorShape": {"dim": [{"size": "960"}]}}}, "dtype": {"type": "DT_FLOAT"}}}, {"name": "StatefulPartitionedCall/functional_1_1/mobilenetv2_1.00_224_1/block_14_depthwise_BN_1/batchnorm/sub", "op": "Const", "attr": {"value": {"tensor": {"dtype": "DT_FLOAT", "tensorShape": {"dim": [{"size": "960"}]}}}, "dtype": {"type": "DT_FLOAT"}}}, {"name": "StatefulPartitionedCall/functional_1_1/mobilenetv2_1.00_224_1/block_14_project_1/convolution/merged_input", "op": "Const", "attr": {"value": {"tensor": {"dtype": "DT_FLOAT", "tensorShape": {"dim": [{"size": "1"}, {"size": "1"}, {"size": "960"}, {"size": "160"}]}}}, "dtype": {"type": "DT_FLOAT"}}}, {"name": "StatefulPartitionedCall/functional_1_1/mobilenetv2_1.00_224_1/block_15_expand_1/convolution/merged_input", "op": "Const", "attr": {"value": {"tensor": {"dtype": "DT_FLOAT", "tensorShape": {"dim": [{"size": "1"}, {"size": "1"}, {"size": "160"}, {"size": "960"}]}}}, "dtype": {"type": "DT_FLOAT"}}}, {"name": "StatefulPartitionedCall/functional_1_1/mobilenetv2_1.00_224_1/block_15_expand_BN_1/batchnorm/sub", "op": "Const", "attr": {"value": {"tensor": {"dtype": "DT_FLOAT", "tensorShape": {"dim": [{"size": "960"}]}}}, "dtype": {"type": "DT_FLOAT"}}}, {"name": "StatefulPartitionedCall/functional_1_1/mobilenetv2_1.00_224_1/block_15_depthwise_1/depthwise/ReadVariableOp", "op": "Const", "attr": {"value": {"tensor": {"dtype": "DT_FLOAT", "tensorShape": {"dim": [{"size": "3"}, {"size": "3"}, {"size": "960"}, {"size": "1"}]}}}, "dtype": {"type": "DT_FLOAT"}}}, {"name": "StatefulPartitionedCall/functional_1_1/mobilenetv2_1.00_224_1/block_15_depthwise_BN_1/batchnorm/mul", "op": "Const", "attr": {"value": {"tensor": {"dtype": "DT_FLOAT", "tensorShape": {"dim": [{"size": "960"}]}}}, "dtype": {"type": "DT_FLOAT"}}}, {"name": "StatefulPartitionedCall/functional_1_1/mobilenetv2_1.00_224_1/block_15_depthwise_BN_1/batchnorm/sub", "op": "Const", "attr": {"value": {"tensor": {"dtype": "DT_FLOAT", "tensorShape": {"dim": [{"size": "960"}]}}}, "dtype": {"type": "DT_FLOAT"}}}, {"name": "StatefulPartitionedCall/functional_1_1/mobilenetv2_1.00_224_1/block_15_project_1/convolution/merged_input", "op": "Const", "attr": {"value": {"tensor": {"dtype": "DT_FLOAT", "tensorShape": {"dim": [{"size": "1"}, {"size": "1"}, {"size": "960"}, {"size": "160"}]}}}, "dtype": {"type": "DT_FLOAT"}}}, {"name": "StatefulPartitionedCall/functional_1_1/mobilenetv2_1.00_224_1/block_16_expand_1/convolution/merged_input", "op": "Const", "attr": {"value": {"tensor": {"dtype": "DT_FLOAT", "tensorShape": {"dim": [{"size": "1"}, {"size": "1"}, {"size": "160"}, {"size": "960"}]}}}, "dtype": {"type": "DT_FLOAT"}}}, {"name": "StatefulPartitionedCall/functional_1_1/mobilenetv2_1.00_224_1/block_16_expand_BN_1/batchnorm/sub", "op": "Const", "attr": {"value": {"tensor": {"dtype": "DT_FLOAT", "tensorShape": {"dim": [{"size": "960"}]}}}, "dtype": {"type": "DT_FLOAT"}}}, {"name": "StatefulPartitionedCall/functional_1_1/mobilenetv2_1.00_224_1/block_16_depthwise_1/depthwise/ReadVariableOp", "op": "Const", "attr": {"value": {"tensor": {"dtype": "DT_FLOAT", "tensorShape": {"dim": [{"size": "3"}, {"size": "3"}, {"size": "960"}, {"size": "1"}]}}}, "dtype": {"type": "DT_FLOAT"}}}, {"name": "StatefulPartitionedCall/functional_1_1/mobilenetv2_1.00_224_1/block_16_depthwise_BN_1/batchnorm/mul", "op": "Const", "attr": {"value": {"tensor": {"dtype": "DT_FLOAT", "tensorShape": {"dim": [{"size": "960"}]}}}, "dtype": {"type": "DT_FLOAT"}}}, {"name": "StatefulPartitionedCall/functional_1_1/mobilenetv2_1.00_224_1/block_16_depthwise_BN_1/batchnorm/sub", "op": "Const", "attr": {"value": {"tensor": {"dtype": "DT_FLOAT", "tensorShape": {"dim": [{"size": "960"}]}}}, "dtype": {"type": "DT_FLOAT"}}}, {"name": "StatefulPartitionedCall/functional_1_1/mobilenetv2_1.00_224_1/block_16_project_1/convolution/merged_input", "op": "Const", "attr": {"value": {"tensor": {"dtype": "DT_FLOAT", "tensorShape": {"dim": [{"size": "1"}, {"size": "1"}, {"size": "960"}, {"size": "320"}]}}}, "dtype": {"type": "DT_FLOAT"}}}, {"name": "StatefulPartitionedCall/functional_1_1/mobilenetv2_1.00_224_1/block_16_project_BN_1/batchnorm/sub", "op": "Const", "attr": {"value": {"tensor": {"dtype": "DT_FLOAT", "tensorShape": {"dim": [{"size": "320"}]}}}, "dtype": {"type": "DT_FLOAT"}}}, {"name": "StatefulPartitionedCall/functional_1_1/mobilenetv2_1.00_224_1/Conv_1_1/convolution/merged_input", "op": "Const", "attr": {"value": {"tensor": {"dtype": "DT_FLOAT", "tensorShape": {"dim": [{"size": "1"}, {"size": "1"}, {"size": "320"}, {"size": "1280"}]}}}, "dtype": {"type": "DT_FLOAT"}}}, {"name": "StatefulPartitionedCall/functional_1_1/mobilenetv2_1.00_224_1/Conv_1_bn_1/batchnorm/sub", "op": "Const", "attr": {"value": {"tensor": {"dtype": "DT_FLOAT", "tensorShape": {"dim": [{"size": "1280"}]}}}, "dtype": {"type": "DT_FLOAT"}}}, {"name": "StatefulPartitionedCall/functional_1_1/global_average_pooling2d_1/Mean/reduction_indices", "op": "Const", "attr": {"value": {"tensor": {"dtype": "DT_INT32", "tensorShape": {"dim": [{"size": "2"}]}}}, "dtype": {"type": "DT_INT32"}}}, {"name": "StatefulPartitionedCall/functional_1_1/dense_1/Cast/ReadVariableOp", "op": "Const", "attr": {"value": {"tensor": {"dtype": "DT_FLOAT", "tensorShape": {"dim": [{"size": "1280"}, {"size": "4"}]}}}, "dtype": {"type": "DT_FLOAT"}}}, {"name": "StatefulPartitionedCall/functional_1_1/dense_1/BiasAdd/ReadVariableOp", "op": "Const", "attr": {"value": {"tensor": {"dtype": "DT_FLOAT", "tensorShape": {"dim": [{"size": "4"}]}}}, "dtype": {"type": "DT_FLOAT"}}}, {"name": "input_layer_2", "op": "Placeholder", "attr": {"shape": {"shape": {"dim": [{"size": "-1"}, {"size": "224"}, {"size": "224"}, {"size": "3"}]}}, "dtype": {"type": "DT_FLOAT"}}}, {"name": "StatefulPartitionedCall/functional_1_1/rescaling_1/mul", "op": "Mul", "input": ["input_layer_2", "StatefulPartitionedCall/functional_1_1/rescaling_1/Cast/x"], "attr": {"T": {"type": "DT_FLOAT"}}}, {"name": "StatefulPartitionedCall/functional_1_1/rescaling_1/add", "op": "AddV2", "input": ["StatefulPartitionedCall/functional_1_1/rescaling_1/mul", "StatefulPartitionedCall/functional_1_1/rescaling_1/Cast_1"], "attr": {"T": {"type": "DT_FLOAT"}}}, {"name": "StatefulPartitionedCall/functional_1_1/mobilenetv2_1.00_224_1/Conv1_relu_1/Relu6", "op": "_FusedConv2D", "input": ["StatefulPartitionedCall/functional_1_1/rescaling_1/add", "StatefulPartitionedCall/functional_1_1/mobilenetv2_1.00_224_1/Conv1_1/convolution/merged_input", "StatefulPartitionedCall/functional_1_1/mobilenetv2_1.00_224_1/bn_Conv1_1/batchnorm/sub"], "device": "/device:CPU:0", "attr": {"num_host_args": {"i": "0"}, "data_format": {"s": "TkhXQw=="}, "filter_format": {"s": "SFdJTw=="}, "strides": {"list": {"i": ["1", "2", "2", "1"]}}, "num_args": {"i": "1"}, "fused_ops": {"list": {"s": ["Qmlhc0FkZA==", "UmVsdTY="]}}, "TArgs": {"list": {"type": ["DT_FLOAT"]}}, "padding": {"s": "U0FNRQ=="}, "use_cudnn_on_gpu": {"b": true}, "leakyrelu_alpha": {"f": 0.2}, "epsilon": {"f": 0.0}, "T": {"type": "DT_FLOAT"}, "explicit_paddings": {"list": {}}, "dilations": {"list": {"i": ["1", "1", "1", "1"]}}}}, {"name": "StatefulPartitionedCall/functional_1_1/mobilenetv2_1.00_224_1/expanded_conv_depthwise_1/depthwise", "op": "DepthwiseConv2dNative", "input": ["StatefulPartitionedCall/functional_1_1/mobilenetv2_1.00_224_1/Conv1_relu_1/Relu6", "StatefulPartitionedCall/functional_1_1/mobilenetv2_1.00_224_1/expanded_conv_depthwise_1/depthwise/ReadVariableOp"], "attr": {"padding": {"s": "U0FNRQ=="}, "data_format": {"s": "TkhXQw=="}, "T": {"type": "DT_FLOAT"}, "explicit_paddings": {"list": {}}, "dilations": {"list": {"i": ["1", "1", "1", "1"]}}, "strides": {"list": {"i": ["1", "1", "1", "1"]}}}}, {"name": "StatefulPartitionedCall/functional_1_1/mobilenetv2_1.00_224_1/expanded_conv_depthwise_BN_1/batchnorm/mul_1", "op": "Mul", "input": ["StatefulPartitionedCall/functional_1_1/mobilenetv2_1.00_224_1/expanded_conv_depthwise_1/depthwise", "StatefulPartitionedCall/functional_1_1/mobilenetv2_1.00_224_1/expanded_conv_depthwise_BN_1/batchnorm/mul"], "attr": {"T": {"type": "DT_FLOAT"}}}, {"name": "StatefulPartitionedCall/functional_1_1/mobilenetv2_1.00_224_1/expanded_conv_depthwise_BN_1/batchnorm/add_1", "op": "AddV2", "input": ["StatefulPartitionedCall/functional_1_1/mobilenetv2_1.00_224_1/expanded_conv_depthwise_BN_1/batchnorm/mul_1", "StatefulPartitionedCall/functional_1_1/mobilenetv2_1.00_224_1/expanded_conv_depthwise_BN_1/batchnorm/sub"], "attr": {"T": {"type": "DT_FLOAT"}}}, {"name": "StatefulPartitionedCall/functional_1_1/mobilenetv2_1.00_224_1/expanded_conv_depthwise_relu_1/Relu6", "op": "Relu6", "input": ["StatefulPartitionedCall/functional_1_1/mobilenetv2_1.00_224_1/expanded_conv_depthwise_BN_1/batchnorm/add_1"], "attr": {"T": {"type": "DT_FLOAT"}}}, {"name": "StatefulPartitionedCall/functional_1_1/mobilenetv2_1.00_224_1/expanded_conv_project_BN_1/batchnorm/add_1", "op": "_FusedConv2D", "input": ["StatefulPartitionedCall/functional_1_1/mobilenetv2_1.00_224_1/expanded_conv_depthwise_relu_1/Relu6", "StatefulPartitionedCall/functional_1_1/mobilenetv2_1.00_224_1/expanded_conv_project_1/convolution/merged_input", "StatefulPartitionedCall/functional_1_1/mobilenetv2_1.00_224_1/expanded_conv_project_BN_1/batchnorm/sub"], "device": "/device:CPU:0", "attr": {"num_host_args": {"i": "0"}, "data_format": {"s": "TkhXQw=="}, "filter_format": {"s": "SFdJTw=="}, "strides": {"list": {"i": ["1", "1", "1", "1"]}}, "num_args": {"i": "1"}, "fused_ops": {"list": {"s": ["Qmlhc0FkZA=="]}}, "TArgs": {"list": {"type": ["DT_FLOAT"]}}, "padding": {"s": "U0FNRQ=="}, "use_cudnn_on_gpu": {"b": true}, "leakyrelu_alpha": {"f": 0.2}, "epsilon": {"f": 0.0}, "T": {"type": "DT_FLOAT"}, "explicit_paddings": {"list": {}}, "dilations": {"list": {"i": ["1", "1", "1", "1"]}}}}, {"name": "StatefulPartitionedCall/functional_1_1/mobilenetv2_1.00_224_1/block_1_expand_relu_1/Relu6", "op": "_FusedConv2D", "input": ["StatefulPartitionedCall/functional_1_1/mobilenetv2_1.00_224_1/expanded_conv_project_BN_1/batchnorm/add_1", "StatefulPartitionedCall/functional_1_1/mobilenetv2_1.00_224_1/block_1_expand_1/convolution/merged_input", "StatefulPartitionedCall/functional_1_1/mobilenetv2_1.00_224_1/block_1_expand_BN_1/batchnorm/sub"], "device": "/device:CPU:0", "attr": {"num_host_args": {"i": "0"}, "data_format": {"s": "TkhXQw=="}, "filter_format": {"s": "SFdJTw=="}, "fused_ops": {"list": {"s": ["Qmlhc0FkZA==", "UmVsdTY="]}}, "num_args": {"i": "1"}, "strides": {"list": {"i": ["1", "1", "1", "1"]}}, "TArgs": {"list": {"type": ["DT_FLOAT"]}}, "padding": {"s": "U0FNRQ=="}, "use_cudnn_on_gpu": {"b": true}, "leakyrelu_alpha": {"f": 0.2}, "epsilon": {"f": 0.0}, "T": {"type": "DT_FLOAT"}, "explicit_paddings": {"list": {}}, "dilations": {"list": {"i": ["1", "1", "1", "1"]}}}}, {"name": "StatefulPartitionedCall/functional_1_1/mobilenetv2_1.00_224_1/block_1_pad_1/Pad", "op": "Pad", "input": ["StatefulPartitionedCall/functional_1_1/mobilenetv2_1.00_224_1/block_1_expand_relu_1/Relu6", "StatefulPartitionedCall/functional_1_1/mobilenetv2_1.00_224_1/block_1_pad_1/Const"], "attr": {"Tpaddings": {"type": "DT_INT32"}, "T": {"type": "DT_FLOAT"}}}, {"name": "StatefulPartitionedCall/functional_1_1/mobilenetv2_1.00_224_1/block_1_depthwise_1/depthwise", "op": "DepthwiseConv2dNative", "input": ["StatefulPartitionedCall/functional_1_1/mobilenetv2_1.00_224_1/block_1_pad_1/Pad", "StatefulPartitionedCall/functional_1_1/mobilenetv2_1.00_224_1/block_1_depthwise_1/depthwise/ReadVariableOp"], "attr": {"padding": {"s": "VkFMSUQ="}, "data_format": {"s": "TkhXQw=="}, "T": {"type": "DT_FLOAT"}, "explicit_paddings": {"list": {}}, "dilations": {"list": {"i": ["1", "1", "1", "1"]}}, "strides": {"list": {"i": ["1", "2", "2", "1"]}}}}, {"name": "StatefulPartitionedCall/functional_1_1/mobilenetv2_1.00_224_1/block_1_depthwise_BN_1/batchnorm/mul_1", "op": "Mul", "input": ["StatefulPartitionedCall/functional_1_1/mobilenetv2_1.00_224_1/block_1_depthwise_1/depthwise", "StatefulPartitionedCall/functional_1_1/mobilenetv2_1.00_224_1/block_1_depthwise_BN_1/batchnorm/mul"], "attr": {"T": {"type": "DT_FLOAT"}}}, {"name": "StatefulPartitionedCall/functional_1_1/mobilenetv2_1.00_224_1/block_1_depthwise_BN_1/batchnorm/add_1", "op": "AddV2", "input": ["StatefulPartitionedCall/functional_1_1/mobilenetv2_1.00_224_1/block_1_depthwise_BN_1/batchnorm/mul_1", "StatefulPartitionedCall/functional_1_1/mobilenetv2_1.00_224_1/block_1_depthwise_BN_1/batchnorm/sub"], "attr": {"T": {"type": "DT_FLOAT"}}}, {"name": "StatefulPartitionedCall/functional_1_1/mobilenetv2_1.00_224_1/block_1_depthwise_relu_1/Relu6", "op": "Relu6", "input": ["StatefulPartitionedCall/functional_1_1/mobilenetv2_1.00_224_1/block_1_depthwise_BN_1/batchnorm/add_1"], "attr": {"T": {"type": "DT_FLOAT"}}}, {"name": "StatefulPartitionedCall/functional_1_1/mobilenetv2_1.00_224_1/block_1_project_BN_1/batchnorm/add_1", "op": "_FusedConv2D", "input": ["StatefulPartitionedCall/functional_1_1/mobilenetv2_1.00_224_1/block_1_depthwise_relu_1/Relu6", "StatefulPartitionedCall/functional_1_1/mobilenetv2_1.00_224_1/block_1_project_1/convolution/merged_input", "StatefulPartitionedCall/functional_1_1/mobilenetv2_1.00_224_1/block_1_project_BN_1/batchnorm/sub"], "device": "/device:CPU:0", "attr": {"num_host_args": {"i": "0"}, "data_format": {"s": "TkhXQw=="}, "filter_format": {"s": "SFdJTw=="}, "strides": {"list": {"i": ["1", "1", "1", "1"]}}, "num_args": {"i": "1"}, "fused_ops": {"list": {"s": ["Qmlhc0FkZA=="]}}, "TArgs": {"list": {"type": ["DT_FLOAT"]}}, "padding": {"s": "U0FNRQ=="}, "use_cudnn_on_gpu": {"b": true}, "leakyrelu_alpha": {"f": 0.2}, "epsilon": {"f": 0.0}, "T": {"type": "DT_FLOAT"}, "explicit_paddings": {"list": {}}, "dilations": {"list": {"i": ["1", "1", "1", "1"]}}}}, {"name": "StatefulPartitionedCall/functional_1_1/mobilenetv2_1.00_224_1/block_2_expand_relu_1/Relu6", "op": "_FusedConv2D", "input": ["StatefulPartitionedCall/functional_1_1/mobilenetv2_1.00_224_1/block_1_project_BN_1/batchnorm/add_1", "StatefulPartitionedCall/functional_1_1/mobilenetv2_1.00_224_1/block_2_expand_1/convolution/merged_input", "StatefulPartitionedCall/functional_1_1/mobilenetv2_1.00_224_1/block_2_expand_BN_1/batchnorm/sub"], "device": "/device:CPU:0", "attr": {"num_host_args": {"i": "0"}, "data_format": {"s": "TkhXQw=="}, "filter_format": {"s": "SFdJTw=="}, "strides": {"list": {"i": ["1", "1", "1", "1"]}}, "num_args": {"i": "1"}, "fused_ops": {"list": {"s": ["Qmlhc0FkZA==", "UmVsdTY="]}}, "TArgs": {"list": {"type": ["DT_FLOAT"]}}, "padding": {"s": "U0FNRQ=="}, "use_cudnn_on_gpu": {"b": true}, "leakyrelu_alpha": {"f": 0.2}, "epsilon": {"f": 0.0}, "T": {"type": "DT_FLOAT"}, "explicit_paddings": {"list": {}}, "dilations": {"list": {"i": ["1", "1", "1", "1"]}}}}, {"name": "StatefulPartitionedCall/functional_1_1/mobilenetv2_1.00_224_1/block_2_depthwise_1/depthwise", "op": "DepthwiseConv2dNative", "input": ["StatefulPartitionedCall/functional_1_1/mobilenetv2_1.00_224_1/block_2_expand_relu_1/Relu6", "StatefulPartitionedCall/functional_1_1/mobilenetv2_1.00_224_1/block_2_depthwise_1/depthwise/ReadVariableOp"], "attr": {"padding": {"s": "U0FNRQ=="}, "data_format": {"s": "TkhXQw=="}, "T": {"type": "DT_FLOAT"}, "explicit_paddings": {"list": {}}, "dilations": {"list": {"i": ["1", "1", "1", "1"]}}, "strides": {"list": {"i": ["1", "1", "1", "1"]}}}}, {"name": "StatefulPartitionedCall/functional_1_1/mobilenetv2_1.00_224_1/block_2_depthwise_BN_1/batchnorm/mul_1", "op": "Mul", "input": ["StatefulPartitionedCall/functional_1_1/mobilenetv2_1.00_224_1/block_2_depthwise_1/depthwise", "StatefulPartitionedCall/functional_1_1/mobilenetv2_1.00_224_1/block_2_depthwise_BN_1/batchnorm/mul"], "attr": {"T": {"type": "DT_FLOAT"}}}, {"name": "StatefulPartitionedCall/functional_1_1/mobilenetv2_1.00_224_1/block_2_depthwise_BN_1/batchnorm/add_1", "op": "AddV2", "input": ["StatefulPartitionedCall/functional_1_1/mobilenetv2_1.00_224_1/block_2_depthwise_BN_1/batchnorm/mul_1", "StatefulPartitionedCall/functional_1_1/mobilenetv2_1.00_224_1/block_2_depthwise_BN_1/batchnorm/sub"], "attr": {"T": {"type": "DT_FLOAT"}}}, {"name": "StatefulPartitionedCall/functional_1_1/mobilenetv2_1.00_224_1/block_2_depthwise_relu_1/Relu6", "op": "Relu6", "input": ["StatefulPartitionedCall/functional_1_1/mobilenetv2_1.00_224_1/block_2_depthwise_BN_1/batchnorm/add_1"], "attr": {"T": {"type": "DT_FLOAT"}}}, {"name": "StatefulPartitionedCall/functional_1_1/mobilenetv2_1.00_224_1/block_2_project_BN_1/batchnorm/mul_1", "op": "Conv2D", "input": ["StatefulPartitionedCall/functional_1_1/mobilenetv2_1.00_224_1/block_2_depthwise_relu_1/Relu6", "StatefulPartitionedCall/functional_1_1/mobilenetv2_1.00_224_1/block_2_project_1/convolution/merged_input"], "device": "/device:CPU:0", "attr": {"padding": {"s": "U0FNRQ=="}, "data_format": {"s": "TkhXQw=="}, "use_cudnn_on_gpu": {"b": true}, "strides": {"list": {"i": ["1", "1", "1", "1"]}}, "T": {"type": "DT_FLOAT"}, "explicit_paddings": {"list": {}}, "dilations": {"list": {"i": ["1", "1", "1", "1"]}}}}, {"name": "StatefulPartitionedCall/functional_1_1/mobilenetv2_1.00_224_1/block_2_add_1/ArithmeticOptimizer/AddOpsRewrite_Leaf_1_Add", "op": "AddN", "input": ["StatefulPartitionedCall/functional_1_1/mobilenetv2_1.00_224_1/block_1_project_BN_1/batchnorm/add_1", "StatefulPartitionedCall/functional_1_1/mobilenetv2_1.00_224_1/block_2_project_BN_1/batchnorm/mul_1"], "attr": {"N": {"i": "2"}, "T": {"type": "DT_FLOAT"}, "_grappler_ArithmeticOptimizer_AddOpsRewriteStage": {"b": true}}}, {"name": "StatefulPartitionedCall/functional_1_1/mobilenetv2_1.00_224_1/block_2_add_1/ArithmeticOptimizer/AddOpsRewrite_Add", "op": "AddV2", "input": ["StatefulPartitionedCall/functional_1_1/mobilenetv2_1.00_224_1/block_2_project_BN_1/batchnorm/sub", "StatefulPartitionedCall/functional_1_1/mobilenetv2_1.00_224_1/block_2_add_1/ArithmeticOptimizer/AddOpsRewrite_Leaf_1_Add"], "attr": {"T": {"type": "DT_FLOAT"}, "_grappler_ArithmeticOptimizer_AddOpsRewriteStage": {"b": true}}}, {"name": "StatefulPartitionedCall/functional_1_1/mobilenetv2_1.00_224_1/block_3_expand_relu_1/Relu6", "op": "_FusedConv2D", "input": ["StatefulPartitionedCall/functional_1_1/mobilenetv2_1.00_224_1/block_2_add_1/ArithmeticOptimizer/AddOpsRewrite_Add", "StatefulPartitionedCall/functional_1_1/mobilenetv2_1.00_224_1/block_3_expand_1/convolution/merged_input", "StatefulPartitionedCall/functional_1_1/mobilenetv2_1.00_224_1/block_3_expand_BN_1/batchnorm/sub"], "device": "/device:CPU:0", "attr": {"num_host_args": {"i": "0"}, "data_format": {"s": "TkhXQw=="}, "filter_format": {"s": "SFdJTw=="}, "fused_ops": {"list": {"s": ["Qmlhc0FkZA==", "UmVsdTY="]}}, "num_args": {"i": "1"}, "strides": {"list": {"i": ["1", "1", "1", "1"]}}, "TArgs": {"list": {"type": ["DT_FLOAT"]}}, "padding": {"s": "U0FNRQ=="}, "use_cudnn_on_gpu": {"b": true}, "leakyrelu_alpha": {"f": 0.2}, "epsilon": {"f": 0.0}, "T": {"type": "DT_FLOAT"}, "explicit_paddings": {"list": {}}, "dilations": {"list": {"i": ["1", "1", "1", "1"]}}}}, {"name": "StatefulPartitionedCall/functional_1_1/mobilenetv2_1.00_224_1/block_3_pad_1/Pad", "op": "Pad", "input": ["StatefulPartitionedCall/functional_1_1/mobilenetv2_1.00_224_1/block_3_expand_relu_1/Relu6", "StatefulPartitionedCall/functional_1_1/mobilenetv2_1.00_224_1/block_3_pad_1/Const"], "attr": {"Tpaddings": {"type": "DT_INT32"}, "T": {"type": "DT_FLOAT"}}}, {"name": "StatefulPartitionedCall/functional_1_1/mobilenetv2_1.00_224_1/block_3_depthwise_1/depthwise", "op": "DepthwiseConv2dNative", "input": ["StatefulPartitionedCall/functional_1_1/mobilenetv2_1.00_224_1/block_3_pad_1/Pad", "StatefulPartitionedCall/functional_1_1/mobilenetv2_1.00_224_1/block_3_depthwise_1/depthwise/ReadVariableOp"], "attr": {"padding": {"s": "VkFMSUQ="}, "data_format": {"s": "TkhXQw=="}, "T": {"type": "DT_FLOAT"}, "explicit_paddings": {"list": {}}, "dilations": {"list": {"i": ["1", "1", "1", "1"]}}, "strides": {"list": {"i": ["1", "2", "2", "1"]}}}}, {"name": "StatefulPartitionedCall/functional_1_1/mobilenetv2_1.00_224_1/block_3_depthwise_BN_1/batchnorm/mul_1", "op": "Mul", "input": ["StatefulPartitionedCall/functional_1_1/mobilenetv2_1.00_224_1/block_3_depthwise_1/depthwise", "StatefulPartitionedCall/functional_1_1/mobilenetv2_1.00_224_1/block_3_depthwise_BN_1/batchnorm/mul"], "attr": {"T": {"type": "DT_FLOAT"}}}, {"name": "StatefulPartitionedCall/functional_1_1/mobilenetv2_1.00_224_1/block_3_depthwise_BN_1/batchnorm/add_1", "op": "AddV2", "input": ["StatefulPartitionedCall/functional_1_1/mobilenetv2_1.00_224_1/block_3_depthwise_BN_1/batchnorm/mul_1", "StatefulPartitionedCall/functional_1_1/mobilenetv2_1.00_224_1/block_3_depthwise_BN_1/batchnorm/sub"], "attr": {"T": {"type": "DT_FLOAT"}}}, {"name": "StatefulPartitionedCall/functional_1_1/mobilenetv2_1.00_224_1/block_3_depthwise_relu_1/Relu6", "op": "Relu6", "input": ["StatefulPartitionedCall/functional_1_1/mobilenetv2_1.00_224_1/block_3_depthwise_BN_1/batchnorm/add_1"], "attr": {"T": {"type": "DT_FLOAT"}}}, {"name": "StatefulPartitionedCall/functional_1_1/mobilenetv2_1.00_224_1/block_3_project_BN_1/batchnorm/add_1", "op": "_FusedConv2D", "input": ["StatefulPartitionedCall/functional_1_1/mobilenetv2_1.00_224_1/block_3_depthwise_relu_1/Relu6", "StatefulPartitionedCall/functional_1_1/mobilenetv2_1.00_224_1/block_3_project_1/convolution/merged_input", "StatefulPartitionedCall/functional_1_1/mobilenetv2_1.00_224_1/block_3_project_BN_1/batchnorm/sub"], "device": "/device:CPU:0", "attr": {"num_host_args": {"i": "0"}, "data_format": {"s": "TkhXQw=="}, "filter_format": {"s": "SFdJTw=="}, "strides": {"list": {"i": ["1", "1", "1", "1"]}}, "num_args": {"i": "1"}, "fused_ops": {"list": {"s": ["Qmlhc0FkZA=="]}}, "TArgs": {"list": {"type": ["DT_FLOAT"]}}, "padding": {"s": "U0FNRQ=="}, "use_cudnn_on_gpu": {"b": true}, "leakyrelu_alpha": {"f": 0.2}, "epsilon": {"f": 0.0}, "T": {"type": "DT_FLOAT"}, "explicit_paddings": {"list": {}}, "dilations": {"list": {"i": ["1", "1", "1", "1"]}}}}, {"name": "StatefulPartitionedCall/functional_1_1/mobilenetv2_1.00_224_1/block_4_expand_relu_1/Relu6", "op": "_FusedConv2D", "input": ["StatefulPartitionedCall/functional_1_1/mobilenetv2_1.00_224_1/block_3_project_BN_1/batchnorm/add_1", "StatefulPartitionedCall/functional_1_1/mobilenetv2_1.00_224_1/block_4_expand_1/convolution/merged_input", "StatefulPartitionedCall/functional_1_1/mobilenetv2_1.00_224_1/block_4_expand_BN_1/batchnorm/sub"], "device": "/device:CPU:0", "attr": {"num_host_args": {"i": "0"}, "data_format": {"s": "TkhXQw=="}, "filter_format": {"s": "SFdJTw=="}, "strides": {"list": {"i": ["1", "1", "1", "1"]}}, "num_args": {"i": "1"}, "fused_ops": {"list": {"s": ["Qmlhc0FkZA==", "UmVsdTY="]}}, "TArgs": {"list": {"type": ["DT_FLOAT"]}}, "padding": {"s": "U0FNRQ=="}, "use_cudnn_on_gpu": {"b": true}, "leakyrelu_alpha": {"f": 0.2}, "epsilon": {"f": 0.0}, "T": {"type": "DT_FLOAT"}, "explicit_paddings": {"list": {}}, "dilations": {"list": {"i": ["1", "1", "1", "1"]}}}}, {"name": "StatefulPartitionedCall/functional_1_1/mobilenetv2_1.00_224_1/block_4_depthwise_1/depthwise", "op": "DepthwiseConv2dNative", "input": ["StatefulPartitionedCall/functional_1_1/mobilenetv2_1.00_224_1/block_4_expand_relu_1/Relu6", "StatefulPartitionedCall/functional_1_1/mobilenetv2_1.00_224_1/block_4_depthwise_1/depthwise/ReadVariableOp"], "attr": {"padding": {"s": "U0FNRQ=="}, "data_format": {"s": "TkhXQw=="}, "T": {"type": "DT_FLOAT"}, "explicit_paddings": {"list": {}}, "dilations": {"list": {"i": ["1", "1", "1", "1"]}}, "strides": {"list": {"i": ["1", "1", "1", "1"]}}}}, {"name": "StatefulPartitionedCall/functional_1_1/mobilenetv2_1.00_224_1/block_4_depthwise_BN_1/batchnorm/mul_1", "op": "Mul", "input": ["StatefulPartitionedCall/functional_1_1/mobilenetv2_1.00_224_1/block_4_depthwise_1/depthwise", "StatefulPartitionedCall/functional_1_1/mobilenetv2_1.00_224_1/block_4_depthwise_BN_1/batchnorm/mul"], "attr": {"T": {"type": "DT_FLOAT"}}}, {"name": "StatefulPartitionedCall/functional_1_1/mobilenetv2_1.00_224_1/block_4_depthwise_BN_1/batchnorm/add_1", "op": "AddV2", "input": ["StatefulPartitionedCall/functional_1_1/mobilenetv2_1.00_224_1/block_4_depthwise_BN_1/batchnorm/mul_1", "StatefulPartitionedCall/functional_1_1/mobilenetv2_1.00_224_1/block_4_depthwise_BN_1/batchnorm/sub"], "attr": {"T": {"type": "DT_FLOAT"}}}, {"name": "StatefulPartitionedCall/functional_1_1/mobilenetv2_1.00_224_1/block_4_depthwise_relu_1/Relu6", "op": "Relu6", "input": ["StatefulPartitionedCall/functional_1_1/mobilenetv2_1.00_224_1/block_4_depthwise_BN_1/batchnorm/add_1"], "attr": {"T": {"type": "DT_FLOAT"}}}, {"name": "StatefulPartitionedCall/functional_1_1/mobilenetv2_1.00_224_1/block_4_project_BN_1/batchnorm/mul_1", "op": "Conv2D", "input": ["StatefulPartitionedCall/functional_1_1/mobilenetv2_1.00_224_1/block_4_depthwise_relu_1/Relu6", "StatefulPartitionedCall/functional_1_1/mobilenetv2_1.00_224_1/block_4_project_1/convolution/merged_input"], "device": "/device:CPU:0", "attr": {"padding": {"s": "U0FNRQ=="}, "data_format": {"s": "TkhXQw=="}, "use_cudnn_on_gpu": {"b": true}, "strides": {"list": {"i": ["1", "1", "1", "1"]}}, "T": {"type": "DT_FLOAT"}, "explicit_paddings": {"list": {}}, "dilations": {"list": {"i": ["1", "1", "1", "1"]}}}}, {"name": "StatefulPartitionedCall/functional_1_1/mobilenetv2_1.00_224_1/block_4_add_1/ArithmeticOptimizer/AddOpsRewrite_Leaf_1_Add", "op": "AddN", "input": ["StatefulPartitionedCall/functional_1_1/mobilenetv2_1.00_224_1/block_3_project_BN_1/batchnorm/add_1", "StatefulPartitionedCall/functional_1_1/mobilenetv2_1.00_224_1/block_4_project_BN_1/batchnorm/mul_1"], "attr": {"N": {"i": "2"}, "T": {"type": "DT_FLOAT"}, "_grappler_ArithmeticOptimizer_AddOpsRewriteStage": {"b": true}}}, {"name": "StatefulPartitionedCall/functional_1_1/mobilenetv2_1.00_224_1/block_4_add_1/ArithmeticOptimizer/AddOpsRewrite_Add", "op": "AddV2", "input": ["StatefulPartitionedCall/functional_1_1/mobilenetv2_1.00_224_1/block_4_project_BN_1/batchnorm/sub", "StatefulPartitionedCall/functional_1_1/mobilenetv2_1.00_224_1/block_4_add_1/ArithmeticOptimizer/AddOpsRewrite_Leaf_1_Add"], "attr": {"T": {"type": "DT_FLOAT"}, "_grappler_ArithmeticOptimizer_AddOpsRewriteStage": {"b": true}}}, {"name": "StatefulPartitionedCall/functional_1_1/mobilenetv2_1.00_224_1/block_5_expand_relu_1/Relu6", "op": "_FusedConv2D", "input": ["StatefulPartitionedCall/functional_1_1/mobilenetv2_1.00_224_1/block_4_add_1/ArithmeticOptimizer/AddOpsRewrite_Add", "StatefulPartitionedCall/functional_1_1/mobilenetv2_1.00_224_1/block_5_expand_1/convolution/merged_input", "StatefulPartitionedCall/functional_1_1/mobilenetv2_1.00_224_1/block_5_expand_BN_1/batchnorm/sub"], "device": "/device:CPU:0", "attr": {"num_host_args": {"i": "0"}, "data_format": {"s": "TkhXQw=="}, "filter_format": {"s": "SFdJTw=="}, "fused_ops": {"list": {"s": ["Qmlhc0FkZA==", "UmVsdTY="]}}, "num_args": {"i": "1"}, "strides": {"list": {"i": ["1", "1", "1", "1"]}}, "TArgs": {"list": {"type": ["DT_FLOAT"]}}, "padding": {"s": "U0FNRQ=="}, "use_cudnn_on_gpu": {"b": true}, "leakyrelu_alpha": {"f": 0.2}, "epsilon": {"f": 0.0}, "T": {"type": "DT_FLOAT"}, "explicit_paddings": {"list": {}}, "dilations": {"list": {"i": ["1", "1", "1", "1"]}}}}, {"name": "StatefulPartitionedCall/functional_1_1/mobilenetv2_1.00_224_1/block_5_depthwise_1/depthwise", "op": "DepthwiseConv2dNative", "input": ["StatefulPartitionedCall/functional_1_1/mobilenetv2_1.00_224_1/block_5_expand_relu_1/Relu6", "StatefulPartitionedCall/functional_1_1/mobilenetv2_1.00_224_1/block_5_depthwise_1/depthwise/ReadVariableOp"], "attr": {"padding": {"s": "U0FNRQ=="}, "data_format": {"s": "TkhXQw=="}, "T": {"type": "DT_FLOAT"}, "explicit_paddings": {"list": {}}, "dilations": {"list": {"i": ["1", "1", "1", "1"]}}, "strides": {"list": {"i": ["1", "1", "1", "1"]}}}}, {"name": "StatefulPartitionedCall/functional_1_1/mobilenetv2_1.00_224_1/block_5_depthwise_BN_1/batchnorm/mul_1", "op": "Mul", "input": ["StatefulPartitionedCall/functional_1_1/mobilenetv2_1.00_224_1/block_5_depthwise_1/depthwise", "StatefulPartitionedCall/functional_1_1/mobilenetv2_1.00_224_1/block_5_depthwise_BN_1/batchnorm/mul"], "attr": {"T": {"type": "DT_FLOAT"}}}, {"name": "StatefulPartitionedCall/functional_1_1/mobilenetv2_1.00_224_1/block_5_depthwise_BN_1/batchnorm/add_1", "op": "AddV2", "input": ["StatefulPartitionedCall/functional_1_1/mobilenetv2_1.00_224_1/block_5_depthwise_BN_1/batchnorm/mul_1", "StatefulPartitionedCall/functional_1_1/mobilenetv2_1.00_224_1/block_5_depthwise_BN_1/batchnorm/sub"], "attr": {"T": {"type": "DT_FLOAT"}}}, {"name": "StatefulPartitionedCall/functional_1_1/mobilenetv2_1.00_224_1/block_5_depthwise_relu_1/Relu6", "op": "Relu6", "input": ["StatefulPartitionedCall/functional_1_1/mobilenetv2_1.00_224_1/block_5_depthwise_BN_1/batchnorm/add_1"], "attr": {"T": {"type": "DT_FLOAT"}}}, {"name": "StatefulPartitionedCall/functional_1_1/mobilenetv2_1.00_224_1/block_5_project_BN_1/batchnorm/mul_1", "op": "Conv2D", "input": ["StatefulPartitionedCall/functional_1_1/mobilenetv2_1.00_224_1/block_5_depthwise_relu_1/Relu6", "StatefulPartitionedCall/functional_1_1/mobilenetv2_1.00_224_1/block_5_project_1/convolution/merged_input"], "device": "/device:CPU:0", "attr": {"padding": {"s": "U0FNRQ=="}, "data_format": {"s": "TkhXQw=="}, "use_cudnn_on_gpu": {"b": true}, "strides": {"list": {"i": ["1", "1", "1", "1"]}}, "T": {"type": "DT_FLOAT"}, "explicit_paddings": {"list": {}}, "dilations": {"list": {"i": ["1", "1", "1", "1"]}}}}, {"name": "StatefulPartitionedCall/functional_1_1/mobilenetv2_1.00_224_1/block_5_add_1/ArithmeticOptimizer/AddOpsRewrite_Leaf_1_Add", "op": "AddN", "input": ["StatefulPartitionedCall/functional_1_1/mobilenetv2_1.00_224_1/block_4_add_1/ArithmeticOptimizer/AddOpsRewrite_Add", "StatefulPartitionedCall/functional_1_1/mobilenetv2_1.00_224_1/block_5_project_BN_1/batchnorm/mul_1"], "attr": {"N": {"i": "2"}, "T": {"type": "DT_FLOAT"}, "_grappler_ArithmeticOptimizer_AddOpsRewriteStage": {"b": true}}}, {"name": "StatefulPartitionedCall/functional_1_1/mobilenetv2_1.00_224_1/block_5_add_1/ArithmeticOptimizer/AddOpsRewrite_Add", "op": "AddV2", "input": ["StatefulPartitionedCall/functional_1_1/mobilenetv2_1.00_224_1/block_5_project_BN_1/batchnorm/sub", "StatefulPartitionedCall/functional_1_1/mobilenetv2_1.00_224_1/block_5_add_1/ArithmeticOptimizer/AddOpsRewrite_Leaf_1_Add"], "attr": {"T": {"type": "DT_FLOAT"}, "_grappler_ArithmeticOptimizer_AddOpsRewriteStage": {"b": true}}}, {"name": "StatefulPartitionedCall/functional_1_1/mobilenetv2_1.00_224_1/block_6_expand_relu_1/Relu6", "op": "_FusedConv2D", "input": ["StatefulPartitionedCall/functional_1_1/mobilenetv2_1.00_224_1/block_5_add_1/ArithmeticOptimizer/AddOpsRewrite_Add", "StatefulPartitionedCall/functional_1_1/mobilenetv2_1.00_224_1/block_6_expand_1/convolution/merged_input", "StatefulPartitionedCall/functional_1_1/mobilenetv2_1.00_224_1/block_6_expand_BN_1/batchnorm/sub"], "device": "/device:CPU:0", "attr": {"num_host_args": {"i": "0"}, "data_format": {"s": "TkhXQw=="}, "filter_format": {"s": "SFdJTw=="}, "fused_ops": {"list": {"s": ["Qmlhc0FkZA==", "UmVsdTY="]}}, "num_args": {"i": "1"}, "strides": {"list": {"i": ["1", "1", "1", "1"]}}, "TArgs": {"list": {"type": ["DT_FLOAT"]}}, "padding": {"s": "U0FNRQ=="}, "use_cudnn_on_gpu": {"b": true}, "leakyrelu_alpha": {"f": 0.2}, "epsilon": {"f": 0.0}, "T": {"type": "DT_FLOAT"}, "explicit_paddings": {"list": {}}, "dilations": {"list": {"i": ["1", "1", "1", "1"]}}}}, {"name": "StatefulPartitionedCall/functional_1_1/mobilenetv2_1.00_224_1/block_6_pad_1/Pad", "op": "Pad", "input": ["StatefulPartitionedCall/functional_1_1/mobilenetv2_1.00_224_1/block_6_expand_relu_1/Relu6", "StatefulPartitionedCall/functional_1_1/mobilenetv2_1.00_224_1/block_6_pad_1/Const"], "attr": {"Tpaddings": {"type": "DT_INT32"}, "T": {"type": "DT_FLOAT"}}}, {"name": "StatefulPartitionedCall/functional_1_1/mobilenetv2_1.00_224_1/block_6_depthwise_1/depthwise", "op": "DepthwiseConv2dNative", "input": ["StatefulPartitionedCall/functional_1_1/mobilenetv2_1.00_224_1/block_6_pad_1/Pad", "StatefulPartitionedCall/functional_1_1/mobilenetv2_1.00_224_1/block_6_depthwise_1/depthwise/ReadVariableOp"], "attr": {"padding": {"s": "VkFMSUQ="}, "data_format": {"s": "TkhXQw=="}, "T": {"type": "DT_FLOAT"}, "explicit_paddings": {"list": {}}, "dilations": {"list": {"i": ["1", "1", "1", "1"]}}, "strides": {"list": {"i": ["1", "2", "2", "1"]}}}}, {"name": "StatefulPartitionedCall/functional_1_1/mobilenetv2_1.00_224_1/block_6_depthwise_BN_1/batchnorm/mul_1", "op": "Mul", "input": ["StatefulPartitionedCall/functional_1_1/mobilenetv2_1.00_224_1/block_6_depthwise_1/depthwise", "StatefulPartitionedCall/functional_1_1/mobilenetv2_1.00_224_1/block_6_depthwise_BN_1/batchnorm/mul"], "attr": {"T": {"type": "DT_FLOAT"}}}, {"name": "StatefulPartitionedCall/functional_1_1/mobilenetv2_1.00_224_1/block_6_depthwise_BN_1/batchnorm/add_1", "op": "AddV2", "input": ["StatefulPartitionedCall/functional_1_1/mobilenetv2_1.00_224_1/block_6_depthwise_BN_1/batchnorm/mul_1", "StatefulPartitionedCall/functional_1_1/mobilenetv2_1.00_224_1/block_6_depthwise_BN_1/batchnorm/sub"], "attr": {"T": {"type": "DT_FLOAT"}}}, {"name": "StatefulPartitionedCall/functional_1_1/mobilenetv2_1.00_224_1/block_6_depthwise_relu_1/Relu6", "op": "Relu6", "input": ["StatefulPartitionedCall/functional_1_1/mobilenetv2_1.00_224_1/block_6_depthwise_BN_1/batchnorm/add_1"], "attr": {"T": {"type": "DT_FLOAT"}}}, {"name": "StatefulPartitionedCall/functional_1_1/mobilenetv2_1.00_224_1/block_6_project_BN_1/batchnorm/add_1", "op": "_FusedConv2D", "input": ["StatefulPartitionedCall/functional_1_1/mobilenetv2_1.00_224_1/block_6_depthwise_relu_1/Relu6", "StatefulPartitionedCall/functional_1_1/mobilenetv2_1.00_224_1/block_6_project_1/convolution/merged_input", "StatefulPartitionedCall/functional_1_1/mobilenetv2_1.00_224_1/block_6_project_BN_1/batchnorm/sub"], "device": "/device:CPU:0", "attr": {"num_host_args": {"i": "0"}, "data_format": {"s": "TkhXQw=="}, "filter_format": {"s": "SFdJTw=="}, "strides": {"list": {"i": ["1", "1", "1", "1"]}}, "num_args": {"i": "1"}, "fused_ops": {"list": {"s": ["Qmlhc0FkZA=="]}}, "TArgs": {"list": {"type": ["DT_FLOAT"]}}, "padding": {"s": "U0FNRQ=="}, "use_cudnn_on_gpu": {"b": true}, "leakyrelu_alpha": {"f": 0.2}, "epsilon": {"f": 0.0}, "T": {"type": "DT_FLOAT"}, "explicit_paddings": {"list": {}}, "dilations": {"list": {"i": ["1", "1", "1", "1"]}}}}, {"name": "StatefulPartitionedCall/functional_1_1/mobilenetv2_1.00_224_1/block_7_expand_relu_1/Relu6", "op": "_FusedConv2D", "input": ["StatefulPartitionedCall/functional_1_1/mobilenetv2_1.00_224_1/block_6_project_BN_1/batchnorm/add_1", "StatefulPartitionedCall/functional_1_1/mobilenetv2_1.00_224_1/block_7_expand_1/convolution/merged_input", "StatefulPartitionedCall/functional_1_1/mobilenetv2_1.00_224_1/block_7_expand_BN_1/batchnorm/sub"], "device": "/device:CPU:0", "attr": {"num_host_args": {"i": "0"}, "data_format": {"s": "TkhXQw=="}, "filter_format": {"s": "SFdJTw=="}, "fused_ops": {"list": {"s": ["Qmlhc0FkZA==", "UmVsdTY="]}}, "num_args": {"i": "1"}, "strides": {"list": {"i": ["1", "1", "1", "1"]}}, "TArgs": {"list": {"type": ["DT_FLOAT"]}}, "padding": {"s": "U0FNRQ=="}, "use_cudnn_on_gpu": {"b": true}, "leakyrelu_alpha": {"f": 0.2}, "epsilon": {"f": 0.0}, "T": {"type": "DT_FLOAT"}, "explicit_paddings": {"list": {}}, "dilations": {"list": {"i": ["1", "1", "1", "1"]}}}}, {"name": "StatefulPartitionedCall/functional_1_1/mobilenetv2_1.00_224_1/block_7_depthwise_1/depthwise", "op": "DepthwiseConv2dNative", "input": ["StatefulPartitionedCall/functional_1_1/mobilenetv2_1.00_224_1/block_7_expand_relu_1/Relu6", "StatefulPartitionedCall/functional_1_1/mobilenetv2_1.00_224_1/block_7_depthwise_1/depthwise/ReadVariableOp"], "attr": {"padding": {"s": "U0FNRQ=="}, "data_format": {"s": "TkhXQw=="}, "T": {"type": "DT_FLOAT"}, "explicit_paddings": {"list": {}}, "dilations": {"list": {"i": ["1", "1", "1", "1"]}}, "strides": {"list": {"i": ["1", "1", "1", "1"]}}}}, {"name": "StatefulPartitionedCall/functional_1_1/mobilenetv2_1.00_224_1/block_7_depthwise_BN_1/batchnorm/mul_1", "op": "Mul", "input": ["StatefulPartitionedCall/functional_1_1/mobilenetv2_1.00_224_1/block_7_depthwise_1/depthwise", "StatefulPartitionedCall/functional_1_1/mobilenetv2_1.00_224_1/block_7_depthwise_BN_1/batchnorm/mul"], "attr": {"T": {"type": "DT_FLOAT"}}}, {"name": "StatefulPartitionedCall/functional_1_1/mobilenetv2_1.00_224_1/block_7_depthwise_BN_1/batchnorm/add_1", "op": "AddV2", "input": ["StatefulPartitionedCall/functional_1_1/mobilenetv2_1.00_224_1/block_7_depthwise_BN_1/batchnorm/mul_1", "StatefulPartitionedCall/functional_1_1/mobilenetv2_1.00_224_1/block_7_depthwise_BN_1/batchnorm/sub"], "attr": {"T": {"type": "DT_FLOAT"}}}, {"name": "StatefulPartitionedCall/functional_1_1/mobilenetv2_1.00_224_1/block_7_depthwise_relu_1/Relu6", "op": "Relu6", "input": ["StatefulPartitionedCall/functional_1_1/mobilenetv2_1.00_224_1/block_7_depthwise_BN_1/batchnorm/add_1"], "attr": {"T": {"type": "DT_FLOAT"}}}, {"name": "StatefulPartitionedCall/functional_1_1/mobilenetv2_1.00_224_1/block_7_project_BN_1/batchnorm/mul_1", "op": "Conv2D", "input": ["StatefulPartitionedCall/functional_1_1/mobilenetv2_1.00_224_1/block_7_depthwise_relu_1/Relu6", "StatefulPartitionedCall/functional_1_1/mobilenetv2_1.00_224_1/block_7_project_1/convolution/merged_input"], "device": "/device:CPU:0", "attr": {"padding": {"s": "U0FNRQ=="}, "data_format": {"s": "TkhXQw=="}, "use_cudnn_on_gpu": {"b": true}, "strides": {"list": {"i": ["1", "1", "1", "1"]}}, "T": {"type": "DT_FLOAT"}, "explicit_paddings": {"list": {}}, "dilations": {"list": {"i": ["1", "1", "1", "1"]}}}}, {"name": "StatefulPartitionedCall/functional_1_1/mobilenetv2_1.00_224_1/block_7_add_1/ArithmeticOptimizer/AddOpsRewrite_Leaf_1_Add", "op": "AddN", "input": ["StatefulPartitionedCall/functional_1_1/mobilenetv2_1.00_224_1/block_6_project_BN_1/batchnorm/add_1", "StatefulPartitionedCall/functional_1_1/mobilenetv2_1.00_224_1/block_7_project_BN_1/batchnorm/mul_1"], "attr": {"N": {"i": "2"}, "T": {"type": "DT_FLOAT"}, "_grappler_ArithmeticOptimizer_AddOpsRewriteStage": {"b": true}}}, {"name": "StatefulPartitionedCall/functional_1_1/mobilenetv2_1.00_224_1/block_7_add_1/ArithmeticOptimizer/AddOpsRewrite_Add", "op": "AddV2", "input": ["StatefulPartitionedCall/functional_1_1/mobilenetv2_1.00_224_1/block_7_project_BN_1/batchnorm/sub", "StatefulPartitionedCall/functional_1_1/mobilenetv2_1.00_224_1/block_7_add_1/ArithmeticOptimizer/AddOpsRewrite_Leaf_1_Add"], "attr": {"T": {"type": "DT_FLOAT"}, "_grappler_ArithmeticOptimizer_AddOpsRewriteStage": {"b": true}}}, {"name": "StatefulPartitionedCall/functional_1_1/mobilenetv2_1.00_224_1/block_8_expand_relu_1/Relu6", "op": "_FusedConv2D", "input": ["StatefulPartitionedCall/functional_1_1/mobilenetv2_1.00_224_1/block_7_add_1/ArithmeticOptimizer/AddOpsRewrite_Add", "StatefulPartitionedCall/functional_1_1/mobilenetv2_1.00_224_1/block_8_expand_1/convolution/merged_input", "StatefulPartitionedCall/functional_1_1/mobilenetv2_1.00_224_1/block_8_expand_BN_1/batchnorm/sub"], "device": "/device:CPU:0", "attr": {"num_host_args": {"i": "0"}, "data_format": {"s": "TkhXQw=="}, "filter_format": {"s": "SFdJTw=="}, "fused_ops": {"list": {"s": ["Qmlhc0FkZA==", "UmVsdTY="]}}, "num_args": {"i": "1"}, "strides": {"list": {"i": ["1", "1", "1", "1"]}}, "TArgs": {"list": {"type": ["DT_FLOAT"]}}, "padding": {"s": "U0FNRQ=="}, "use_cudnn_on_gpu": {"b": true}, "leakyrelu_alpha": {"f": 0.2}, "epsilon": {"f": 0.0}, "T": {"type": "DT_FLOAT"}, "explicit_paddings": {"list": {}}, "dilations": {"list": {"i": ["1", "1", "1", "1"]}}}}, {"name": "StatefulPartitionedCall/functional_1_1/mobilenetv2_1.00_224_1/block_8_depthwise_1/depthwise", "op": "DepthwiseConv2dNative", "input": ["StatefulPartitionedCall/functional_1_1/mobilenetv2_1.00_224_1/block_8_expand_relu_1/Relu6", "StatefulPartitionedCall/functional_1_1/mobilenetv2_1.00_224_1/block_8_depthwise_1/depthwise/ReadVariableOp"], "attr": {"padding": {"s": "U0FNRQ=="}, "data_format": {"s": "TkhXQw=="}, "T": {"type": "DT_FLOAT"}, "explicit_paddings": {"list": {}}, "dilations": {"list": {"i": ["1", "1", "1", "1"]}}, "strides": {"list": {"i": ["1", "1", "1", "1"]}}}}, {"name": "StatefulPartitionedCall/functional_1_1/mobilenetv2_1.00_224_1/block_8_depthwise_BN_1/batchnorm/mul_1", "op": "Mul", "input": ["StatefulPartitionedCall/functional_1_1/mobilenetv2_1.00_224_1/block_8_depthwise_1/depthwise", "StatefulPartitionedCall/functional_1_1/mobilenetv2_1.00_224_1/block_8_depthwise_BN_1/batchnorm/mul"], "attr": {"T": {"type": "DT_FLOAT"}}}, {"name": "StatefulPartitionedCall/functional_1_1/mobilenetv2_1.00_224_1/block_8_depthwise_BN_1/batchnorm/add_1", "op": "AddV2", "input": ["StatefulPartitionedCall/functional_1_1/mobilenetv2_1.00_224_1/block_8_depthwise_BN_1/batchnorm/mul_1", "StatefulPartitionedCall/functional_1_1/mobilenetv2_1.00_224_1/block_8_depthwise_BN_1/batchnorm/sub"], "attr": {"T": {"type": "DT_FLOAT"}}}, {"name": "StatefulPartitionedCall/functional_1_1/mobilenetv2_1.00_224_1/block_8_depthwise_relu_1/Relu6", "op": "Relu6", "input": ["StatefulPartitionedCall/functional_1_1/mobilenetv2_1.00_224_1/block_8_depthwise_BN_1/batchnorm/add_1"], "attr": {"T": {"type": "DT_FLOAT"}}}, {"name": "StatefulPartitionedCall/functional_1_1/mobilenetv2_1.00_224_1/block_8_project_BN_1/batchnorm/mul_1", "op": "Conv2D", "input": ["StatefulPartitionedCall/functional_1_1/mobilenetv2_1.00_224_1/block_8_depthwise_relu_1/Relu6", "StatefulPartitionedCall/functional_1_1/mobilenetv2_1.00_224_1/block_8_project_1/convolution/merged_input"], "device": "/device:CPU:0", "attr": {"padding": {"s": "U0FNRQ=="}, "data_format": {"s": "TkhXQw=="}, "strides": {"list": {"i": ["1", "1", "1", "1"]}}, "use_cudnn_on_gpu": {"b": true}, "T": {"type": "DT_FLOAT"}, "explicit_paddings": {"list": {}}, "dilations": {"list": {"i": ["1", "1", "1", "1"]}}}}, {"name": "StatefulPartitionedCall/functional_1_1/mobilenetv2_1.00_224_1/block_8_add_1/ArithmeticOptimizer/AddOpsRewrite_Leaf_1_Add", "op": "AddN", "input": ["StatefulPartitionedCall/functional_1_1/mobilenetv2_1.00_224_1/block_7_add_1/ArithmeticOptimizer/AddOpsRewrite_Add", "StatefulPartitionedCall/functional_1_1/mobilenetv2_1.00_224_1/block_8_project_BN_1/batchnorm/mul_1"], "attr": {"N": {"i": "2"}, "T": {"type": "DT_FLOAT"}, "_grappler_ArithmeticOptimizer_AddOpsRewriteStage": {"b": true}}}, {"name": "StatefulPartitionedCall/functional_1_1/mobilenetv2_1.00_224_1/block_8_add_1/ArithmeticOptimizer/AddOpsRewrite_Add", "op": "AddV2", "input": ["StatefulPartitionedCall/functional_1_1/mobilenetv2_1.00_224_1/block_8_project_BN_1/batchnorm/sub", "StatefulPartitionedCall/functional_1_1/mobilenetv2_1.00_224_1/block_8_add_1/ArithmeticOptimizer/AddOpsRewrite_Leaf_1_Add"], "attr": {"T": {"type": "DT_FLOAT"}, "_grappler_ArithmeticOptimizer_AddOpsRewriteStage": {"b": true}}}, {"name": "StatefulPartitionedCall/functional_1_1/mobilenetv2_1.00_224_1/block_9_expand_relu_1/Relu6", "op": "_FusedConv2D", "input": ["StatefulPartitionedCall/functional_1_1/mobilenetv2_1.00_224_1/block_8_add_1/ArithmeticOptimizer/AddOpsRewrite_Add", "StatefulPartitionedCall/functional_1_1/mobilenetv2_1.00_224_1/block_9_expand_1/convolution/merged_input", "StatefulPartitionedCall/functional_1_1/mobilenetv2_1.00_224_1/block_9_expand_BN_1/batchnorm/sub"], "device": "/device:CPU:0", "attr": {"num_host_args": {"i": "0"}, "data_format": {"s": "TkhXQw=="}, "filter_format": {"s": "SFdJTw=="}, "strides": {"list": {"i": ["1", "1", "1", "1"]}}, "num_args": {"i": "1"}, "fused_ops": {"list": {"s": ["Qmlhc0FkZA==", "UmVsdTY="]}}, "TArgs": {"list": {"type": ["DT_FLOAT"]}}, "padding": {"s": "U0FNRQ=="}, "use_cudnn_on_gpu": {"b": true}, "leakyrelu_alpha": {"f": 0.2}, "epsilon": {"f": 0.0}, "T": {"type": "DT_FLOAT"}, "explicit_paddings": {"list": {}}, "dilations": {"list": {"i": ["1", "1", "1", "1"]}}}}, {"name": "StatefulPartitionedCall/functional_1_1/mobilenetv2_1.00_224_1/block_9_depthwise_1/depthwise", "op": "DepthwiseConv2dNative", "input": ["StatefulPartitionedCall/functional_1_1/mobilenetv2_1.00_224_1/block_9_expand_relu_1/Relu6", "StatefulPartitionedCall/functional_1_1/mobilenetv2_1.00_224_1/block_9_depthwise_1/depthwise/ReadVariableOp"], "attr": {"padding": {"s": "U0FNRQ=="}, "data_format": {"s": "TkhXQw=="}, "T": {"type": "DT_FLOAT"}, "explicit_paddings": {"list": {}}, "dilations": {"list": {"i": ["1", "1", "1", "1"]}}, "strides": {"list": {"i": ["1", "1", "1", "1"]}}}}, {"name": "StatefulPartitionedCall/functional_1_1/mobilenetv2_1.00_224_1/block_9_depthwise_BN_1/batchnorm/mul_1", "op": "Mul", "input": ["StatefulPartitionedCall/functional_1_1/mobilenetv2_1.00_224_1/block_9_depthwise_1/depthwise", "StatefulPartitionedCall/functional_1_1/mobilenetv2_1.00_224_1/block_9_depthwise_BN_1/batchnorm/mul"], "attr": {"T": {"type": "DT_FLOAT"}}}, {"name": "StatefulPartitionedCall/functional_1_1/mobilenetv2_1.00_224_1/block_9_depthwise_BN_1/batchnorm/add_1", "op": "AddV2", "input": ["StatefulPartitionedCall/functional_1_1/mobilenetv2_1.00_224_1/block_9_depthwise_BN_1/batchnorm/mul_1", "StatefulPartitionedCall/functional_1_1/mobilenetv2_1.00_224_1/block_9_depthwise_BN_1/batchnorm/sub"], "attr": {"T": {"type": "DT_FLOAT"}}}, {"name": "StatefulPartitionedCall/functional_1_1/mobilenetv2_1.00_224_1/block_9_depthwise_relu_1/Relu6", "op": "Relu6", "input": ["StatefulPartitionedCall/functional_1_1/mobilenetv2_1.00_224_1/block_9_depthwise_BN_1/batchnorm/add_1"], "attr": {"T": {"type": "DT_FLOAT"}}}, {"name": "StatefulPartitionedCall/functional_1_1/mobilenetv2_1.00_224_1/block_9_project_BN_1/batchnorm/mul_1", "op": "Conv2D", "input": ["StatefulPartitionedCall/functional_1_1/mobilenetv2_1.00_224_1/block_9_depthwise_relu_1/Relu6", "StatefulPartitionedCall/functional_1_1/mobilenetv2_1.00_224_1/block_9_project_1/convolution/merged_input"], "device": "/device:CPU:0", "attr": {"padding": {"s": "U0FNRQ=="}, "data_format": {"s": "TkhXQw=="}, "use_cudnn_on_gpu": {"b": true}, "strides": {"list": {"i": ["1", "1", "1", "1"]}}, "T": {"type": "DT_FLOAT"}, "explicit_paddings": {"list": {}}, "dilations": {"list": {"i": ["1", "1", "1", "1"]}}}}, {"name": "StatefulPartitionedCall/functional_1_1/mobilenetv2_1.00_224_1/block_9_add_1/ArithmeticOptimizer/AddOpsRewrite_Leaf_1_Add", "op": "AddN", "input": ["StatefulPartitionedCall/functional_1_1/mobilenetv2_1.00_224_1/block_8_add_1/ArithmeticOptimizer/AddOpsRewrite_Add", "StatefulPartitionedCall/functional_1_1/mobilenetv2_1.00_224_1/block_9_project_BN_1/batchnorm/mul_1"], "attr": {"N": {"i": "2"}, "T": {"type": "DT_FLOAT"}, "_grappler_ArithmeticOptimizer_AddOpsRewriteStage": {"b": true}}}, {"name": "StatefulPartitionedCall/functional_1_1/mobilenetv2_1.00_224_1/block_9_add_1/ArithmeticOptimizer/AddOpsRewrite_Add", "op": "AddV2", "input": ["StatefulPartitionedCall/functional_1_1/mobilenetv2_1.00_224_1/block_9_project_BN_1/batchnorm/sub", "StatefulPartitionedCall/functional_1_1/mobilenetv2_1.00_224_1/block_9_add_1/ArithmeticOptimizer/AddOpsRewrite_Leaf_1_Add"], "attr": {"T": {"type": "DT_FLOAT"}, "_grappler_ArithmeticOptimizer_AddOpsRewriteStage": {"b": true}}}, {"name": "StatefulPartitionedCall/functional_1_1/mobilenetv2_1.00_224_1/block_10_expand_relu_1/Relu6", "op": "_FusedConv2D", "input": ["StatefulPartitionedCall/functional_1_1/mobilenetv2_1.00_224_1/block_9_add_1/ArithmeticOptimizer/AddOpsRewrite_Add", "StatefulPartitionedCall/functional_1_1/mobilenetv2_1.00_224_1/block_10_expand_1/convolution/merged_input", "StatefulPartitionedCall/functional_1_1/mobilenetv2_1.00_224_1/block_10_expand_BN_1/batchnorm/sub"], "device": "/device:CPU:0", "attr": {"num_host_args": {"i": "0"}, "data_format": {"s": "TkhXQw=="}, "filter_format": {"s": "SFdJTw=="}, "strides": {"list": {"i": ["1", "1", "1", "1"]}}, "num_args": {"i": "1"}, "fused_ops": {"list": {"s": ["Qmlhc0FkZA==", "UmVsdTY="]}}, "TArgs": {"list": {"type": ["DT_FLOAT"]}}, "padding": {"s": "U0FNRQ=="}, "use_cudnn_on_gpu": {"b": true}, "leakyrelu_alpha": {"f": 0.2}, "epsilon": {"f": 0.0}, "T": {"type": "DT_FLOAT"}, "explicit_paddings": {"list": {}}, "dilations": {"list": {"i": ["1", "1", "1", "1"]}}}}, {"name": "StatefulPartitionedCall/functional_1_1/mobilenetv2_1.00_224_1/block_10_depthwise_1/depthwise", "op": "DepthwiseConv2dNative", "input": ["StatefulPartitionedCall/functional_1_1/mobilenetv2_1.00_224_1/block_10_expand_relu_1/Relu6", "StatefulPartitionedCall/functional_1_1/mobilenetv2_1.00_224_1/block_10_depthwise_1/depthwise/ReadVariableOp"], "attr": {"padding": {"s": "U0FNRQ=="}, "data_format": {"s": "TkhXQw=="}, "T": {"type": "DT_FLOAT"}, "explicit_paddings": {"list": {}}, "dilations": {"list": {"i": ["1", "1", "1", "1"]}}, "strides": {"list": {"i": ["1", "1", "1", "1"]}}}}, {"name": "StatefulPartitionedCall/functional_1_1/mobilenetv2_1.00_224_1/block_10_depthwise_BN_1/batchnorm/mul_1", "op": "Mul", "input": ["StatefulPartitionedCall/functional_1_1/mobilenetv2_1.00_224_1/block_10_depthwise_1/depthwise", "StatefulPartitionedCall/functional_1_1/mobilenetv2_1.00_224_1/block_10_depthwise_BN_1/batchnorm/mul"], "attr": {"T": {"type": "DT_FLOAT"}}}, {"name": "StatefulPartitionedCall/functional_1_1/mobilenetv2_1.00_224_1/block_10_depthwise_BN_1/batchnorm/add_1", "op": "AddV2", "input": ["StatefulPartitionedCall/functional_1_1/mobilenetv2_1.00_224_1/block_10_depthwise_BN_1/batchnorm/mul_1", "StatefulPartitionedCall/functional_1_1/mobilenetv2_1.00_224_1/block_10_depthwise_BN_1/batchnorm/sub"], "attr": {"T": {"type": "DT_FLOAT"}}}, {"name": "StatefulPartitionedCall/functional_1_1/mobilenetv2_1.00_224_1/block_10_depthwise_relu_1/Relu6", "op": "Relu6", "input": ["StatefulPartitionedCall/functional_1_1/mobilenetv2_1.00_224_1/block_10_depthwise_BN_1/batchnorm/add_1"], "attr": {"T": {"type": "DT_FLOAT"}}}, {"name": "StatefulPartitionedCall/functional_1_1/mobilenetv2_1.00_224_1/block_10_project_BN_1/batchnorm/add_1", "op": "_FusedConv2D", "input": ["StatefulPartitionedCall/functional_1_1/mobilenetv2_1.00_224_1/block_10_depthwise_relu_1/Relu6", "StatefulPartitionedCall/functional_1_1/mobilenetv2_1.00_224_1/block_10_project_1/convolution/merged_input", "StatefulPartitionedCall/functional_1_1/mobilenetv2_1.00_224_1/block_10_project_BN_1/batchnorm/sub"], "device": "/device:CPU:0", "attr": {"num_host_args": {"i": "0"}, "data_format": {"s": "TkhXQw=="}, "filter_format": {"s": "SFdJTw=="}, "strides": {"list": {"i": ["1", "1", "1", "1"]}}, "num_args": {"i": "1"}, "fused_ops": {"list": {"s": ["Qmlhc0FkZA=="]}}, "TArgs": {"list": {"type": ["DT_FLOAT"]}}, "padding": {"s": "U0FNRQ=="}, "use_cudnn_on_gpu": {"b": true}, "leakyrelu_alpha": {"f": 0.2}, "epsilon": {"f": 0.0}, "T": {"type": "DT_FLOAT"}, "explicit_paddings": {"list": {}}, "dilations": {"list": {"i": ["1", "1", "1", "1"]}}}}, {"name": "StatefulPartitionedCall/functional_1_1/mobilenetv2_1.00_224_1/block_11_expand_relu_1/Relu6", "op": "_FusedConv2D", "input": ["StatefulPartitionedCall/functional_1_1/mobilenetv2_1.00_224_1/block_10_project_BN_1/batchnorm/add_1", "StatefulPartitionedCall/functional_1_1/mobilenetv2_1.00_224_1/block_11_expand_1/convolution/merged_input", "StatefulPartitionedCall/functional_1_1/mobilenetv2_1.00_224_1/block_11_expand_BN_1/batchnorm/sub"], "device": "/device:CPU:0", "attr": {"num_host_args": {"i": "0"}, "data_format": {"s": "TkhXQw=="}, "filter_format": {"s": "SFdJTw=="}, "fused_ops": {"list": {"s": ["Qmlhc0FkZA==", "UmVsdTY="]}}, "num_args": {"i": "1"}, "strides": {"list": {"i": ["1", "1", "1", "1"]}}, "TArgs": {"list": {"type": ["DT_FLOAT"]}}, "padding": {"s": "U0FNRQ=="}, "use_cudnn_on_gpu": {"b": true}, "leakyrelu_alpha": {"f": 0.2}, "epsilon": {"f": 0.0}, "T": {"type": "DT_FLOAT"}, "explicit_paddings": {"list": {}}, "dilations": {"list": {"i": ["1", "1", "1", "1"]}}}}, {"name": "StatefulPartitionedCall/functional_1_1/mobilenetv2_1.00_224_1/block_11_depthwise_1/depthwise", "op": "DepthwiseConv2dNative", "input": ["StatefulPartitionedCall/functional_1_1/mobilenetv2_1.00_224_1/block_11_expand_relu_1/Relu6", "StatefulPartitionedCall/functional_1_1/mobilenetv2_1.00_224_1/block_11_depthwise_1/depthwise/ReadVariableOp"], "attr": {"padding": {"s": "U0FNRQ=="}, "data_format": {"s": "TkhXQw=="}, "T": {"type": "DT_FLOAT"}, "explicit_paddings": {"list": {}}, "dilations": {"list": {"i": ["1", "1", "1", "1"]}}, "strides": {"list": {"i": ["1", "1", "1", "1"]}}}}, {"name": "StatefulPartitionedCall/functional_1_1/mobilenetv2_1.00_224_1/block_11_depthwise_BN_1/batchnorm/mul_1", "op": "Mul", "input": ["StatefulPartitionedCall/functional_1_1/mobilenetv2_1.00_224_1/block_11_depthwise_1/depthwise", "StatefulPartitionedCall/functional_1_1/mobilenetv2_1.00_224_1/block_11_depthwise_BN_1/batchnorm/mul"], "attr": {"T": {"type": "DT_FLOAT"}}}, {"name": "StatefulPartitionedCall/functional_1_1/mobilenetv2_1.00_224_1/block_11_depthwise_BN_1/batchnorm/add_1", "op": "AddV2", "input": ["StatefulPartitionedCall/functional_1_1/mobilenetv2_1.00_224_1/block_11_depthwise_BN_1/batchnorm/mul_1", "StatefulPartitionedCall/functional_1_1/mobilenetv2_1.00_224_1/block_11_depthwise_BN_1/batchnorm/sub"], "attr": {"T": {"type": "DT_FLOAT"}}}, {"name": "StatefulPartitionedCall/functional_1_1/mobilenetv2_1.00_224_1/block_11_depthwise_relu_1/Relu6", "op": "Relu6", "input": ["StatefulPartitionedCall/functional_1_1/mobilenetv2_1.00_224_1/block_11_depthwise_BN_1/batchnorm/add_1"], "attr": {"T": {"type": "DT_FLOAT"}}}, {"name": "StatefulPartitionedCall/functional_1_1/mobilenetv2_1.00_224_1/block_11_project_BN_1/batchnorm/mul_1", "op": "Conv2D", "input": ["StatefulPartitionedCall/functional_1_1/mobilenetv2_1.00_224_1/block_11_depthwise_relu_1/Relu6", "StatefulPartitionedCall/functional_1_1/mobilenetv2_1.00_224_1/block_11_project_1/convolution/merged_input"], "device": "/device:CPU:0", "attr": {"padding": {"s": "U0FNRQ=="}, "data_format": {"s": "TkhXQw=="}, "use_cudnn_on_gpu": {"b": true}, "strides": {"list": {"i": ["1", "1", "1", "1"]}}, "T": {"type": "DT_FLOAT"}, "explicit_paddings": {"list": {}}, "dilations": {"list": {"i": ["1", "1", "1", "1"]}}}}, {"name": "StatefulPartitionedCall/functional_1_1/mobilenetv2_1.00_224_1/block_11_add_1/ArithmeticOptimizer/AddOpsRewrite_Leaf_1_Add", "op": "AddN", "input": ["StatefulPartitionedCall/functional_1_1/mobilenetv2_1.00_224_1/block_10_project_BN_1/batchnorm/add_1", "StatefulPartitionedCall/functional_1_1/mobilenetv2_1.00_224_1/block_11_project_BN_1/batchnorm/mul_1"], "attr": {"N": {"i": "2"}, "T": {"type": "DT_FLOAT"}, "_grappler_ArithmeticOptimizer_AddOpsRewriteStage": {"b": true}}}, {"name": "StatefulPartitionedCall/functional_1_1/mobilenetv2_1.00_224_1/block_11_add_1/ArithmeticOptimizer/AddOpsRewrite_Add", "op": "AddV2", "input": ["StatefulPartitionedCall/functional_1_1/mobilenetv2_1.00_224_1/block_11_project_BN_1/batchnorm/sub", "StatefulPartitionedCall/functional_1_1/mobilenetv2_1.00_224_1/block_11_add_1/ArithmeticOptimizer/AddOpsRewrite_Leaf_1_Add"], "attr": {"T": {"type": "DT_FLOAT"}, "_grappler_ArithmeticOptimizer_AddOpsRewriteStage": {"b": true}}}, {"name": "StatefulPartitionedCall/functional_1_1/mobilenetv2_1.00_224_1/block_12_expand_relu_1/Relu6", "op": "_FusedConv2D", "input": ["StatefulPartitionedCall/functional_1_1/mobilenetv2_1.00_224_1/block_11_add_1/ArithmeticOptimizer/AddOpsRewrite_Add", "StatefulPartitionedCall/functional_1_1/mobilenetv2_1.00_224_1/block_12_expand_1/convolution/merged_input", "StatefulPartitionedCall/functional_1_1/mobilenetv2_1.00_224_1/block_12_expand_BN_1/batchnorm/sub"], "device": "/device:CPU:0", "attr": {"num_host_args": {"i": "0"}, "data_format": {"s": "TkhXQw=="}, "filter_format": {"s": "SFdJTw=="}, "strides": {"list": {"i": ["1", "1", "1", "1"]}}, "num_args": {"i": "1"}, "fused_ops": {"list": {"s": ["Qmlhc0FkZA==", "UmVsdTY="]}}, "TArgs": {"list": {"type": ["DT_FLOAT"]}}, "padding": {"s": "U0FNRQ=="}, "use_cudnn_on_gpu": {"b": true}, "leakyrelu_alpha": {"f": 0.2}, "epsilon": {"f": 0.0}, "T": {"type": "DT_FLOAT"}, "explicit_paddings": {"list": {}}, "dilations": {"list": {"i": ["1", "1", "1", "1"]}}}}, {"name": "StatefulPartitionedCall/functional_1_1/mobilenetv2_1.00_224_1/block_12_depthwise_1/depthwise", "op": "DepthwiseConv2dNative", "input": ["StatefulPartitionedCall/functional_1_1/mobilenetv2_1.00_224_1/block_12_expand_relu_1/Relu6", "StatefulPartitionedCall/functional_1_1/mobilenetv2_1.00_224_1/block_12_depthwise_1/depthwise/ReadVariableOp"], "attr": {"padding": {"s": "U0FNRQ=="}, "data_format": {"s": "TkhXQw=="}, "T": {"type": "DT_FLOAT"}, "explicit_paddings": {"list": {}}, "dilations": {"list": {"i": ["1", "1", "1", "1"]}}, "strides": {"list": {"i": ["1", "1", "1", "1"]}}}}, {"name": "StatefulPartitionedCall/functional_1_1/mobilenetv2_1.00_224_1/block_12_depthwise_BN_1/batchnorm/mul_1", "op": "Mul", "input": ["StatefulPartitionedCall/functional_1_1/mobilenetv2_1.00_224_1/block_12_depthwise_1/depthwise", "StatefulPartitionedCall/functional_1_1/mobilenetv2_1.00_224_1/block_12_depthwise_BN_1/batchnorm/mul"], "attr": {"T": {"type": "DT_FLOAT"}}}, {"name": "StatefulPartitionedCall/functional_1_1/mobilenetv2_1.00_224_1/block_12_depthwise_BN_1/batchnorm/add_1", "op": "AddV2", "input": ["StatefulPartitionedCall/functional_1_1/mobilenetv2_1.00_224_1/block_12_depthwise_BN_1/batchnorm/mul_1", "StatefulPartitionedCall/functional_1_1/mobilenetv2_1.00_224_1/block_12_depthwise_BN_1/batchnorm/sub"], "attr": {"T": {"type": "DT_FLOAT"}}}, {"name": "StatefulPartitionedCall/functional_1_1/mobilenetv2_1.00_224_1/block_12_depthwise_relu_1/Relu6", "op": "Relu6", "input": ["StatefulPartitionedCall/functional_1_1/mobilenetv2_1.00_224_1/block_12_depthwise_BN_1/batchnorm/add_1"], "attr": {"T": {"type": "DT_FLOAT"}}}, {"name": "StatefulPartitionedCall/functional_1_1/mobilenetv2_1.00_224_1/block_12_project_BN_1/batchnorm/mul_1", "op": "Conv2D", "input": ["StatefulPartitionedCall/functional_1_1/mobilenetv2_1.00_224_1/block_12_depthwise_relu_1/Relu6", "StatefulPartitionedCall/functional_1_1/mobilenetv2_1.00_224_1/block_12_project_1/convolution/merged_input"], "device": "/device:CPU:0", "attr": {"padding": {"s": "U0FNRQ=="}, "data_format": {"s": "TkhXQw=="}, "use_cudnn_on_gpu": {"b": true}, "strides": {"list": {"i": ["1", "1", "1", "1"]}}, "T": {"type": "DT_FLOAT"}, "explicit_paddings": {"list": {}}, "dilations": {"list": {"i": ["1", "1", "1", "1"]}}}}, {"name": "StatefulPartitionedCall/functional_1_1/mobilenetv2_1.00_224_1/block_12_add_1/ArithmeticOptimizer/AddOpsRewrite_Leaf_1_Add", "op": "AddN", "input": ["StatefulPartitionedCall/functional_1_1/mobilenetv2_1.00_224_1/block_11_add_1/ArithmeticOptimizer/AddOpsRewrite_Add", "StatefulPartitionedCall/functional_1_1/mobilenetv2_1.00_224_1/block_12_project_BN_1/batchnorm/mul_1"], "attr": {"N": {"i": "2"}, "T": {"type": "DT_FLOAT"}, "_grappler_ArithmeticOptimizer_AddOpsRewriteStage": {"b": true}}}, {"name": "StatefulPartitionedCall/functional_1_1/mobilenetv2_1.00_224_1/block_12_add_1/ArithmeticOptimizer/AddOpsRewrite_Add", "op": "AddV2", "input": ["StatefulPartitionedCall/functional_1_1/mobilenetv2_1.00_224_1/block_12_project_BN_1/batchnorm/sub", "StatefulPartitionedCall/functional_1_1/mobilenetv2_1.00_224_1/block_12_add_1/ArithmeticOptimizer/AddOpsRewrite_Leaf_1_Add"], "attr": {"T": {"type": "DT_FLOAT"}, "_grappler_ArithmeticOptimizer_AddOpsRewriteStage": {"b": true}}}, {"name": "StatefulPartitionedCall/functional_1_1/mobilenetv2_1.00_224_1/block_13_expand_relu_1/Relu6", "op": "_FusedConv2D", "input": ["StatefulPartitionedCall/functional_1_1/mobilenetv2_1.00_224_1/block_12_add_1/ArithmeticOptimizer/AddOpsRewrite_Add", "StatefulPartitionedCall/functional_1_1/mobilenetv2_1.00_224_1/block_13_expand_1/convolution/merged_input", "StatefulPartitionedCall/functional_1_1/mobilenetv2_1.00_224_1/block_13_expand_BN_1/batchnorm/sub"], "device": "/device:CPU:0", "attr": {"num_host_args": {"i": "0"}, "data_format": {"s": "TkhXQw=="}, "filter_format": {"s": "SFdJTw=="}, "fused_ops": {"list": {"s": ["Qmlhc0FkZA==", "UmVsdTY="]}}, "num_args": {"i": "1"}, "strides": {"list": {"i": ["1", "1", "1", "1"]}}, "TArgs": {"list": {"type": ["DT_FLOAT"]}}, "padding": {"s": "U0FNRQ=="}, "use_cudnn_on_gpu": {"b": true}, "leakyrelu_alpha": {"f": 0.2}, "epsilon": {"f": 0.0}, "T": {"type": "DT_FLOAT"}, "explicit_paddings": {"list": {}}, "dilations": {"list": {"i": ["1", "1", "1", "1"]}}}}, {"name": "StatefulPartitionedCall/functional_1_1/mobilenetv2_1.00_224_1/block_13_pad_1/Pad", "op": "Pad", "input": ["StatefulPartitionedCall/functional_1_1/mobilenetv2_1.00_224_1/block_13_expand_relu_1/Relu6", "StatefulPartitionedCall/functional_1_1/mobilenetv2_1.00_224_1/block_13_pad_1/Const"], "attr": {"Tpaddings": {"type": "DT_INT32"}, "T": {"type": "DT_FLOAT"}}}, {"name": "StatefulPartitionedCall/functional_1_1/mobilenetv2_1.00_224_1/block_13_depthwise_1/depthwise", "op": "DepthwiseConv2dNative", "input": ["StatefulPartitionedCall/functional_1_1/mobilenetv2_1.00_224_1/block_13_pad_1/Pad", "StatefulPartitionedCall/functional_1_1/mobilenetv2_1.00_224_1/block_13_depthwise_1/depthwise/ReadVariableOp"], "attr": {"padding": {"s": "VkFMSUQ="}, "data_format": {"s": "TkhXQw=="}, "T": {"type": "DT_FLOAT"}, "explicit_paddings": {"list": {}}, "dilations": {"list": {"i": ["1", "1", "1", "1"]}}, "strides": {"list": {"i": ["1", "2", "2", "1"]}}}}, {"name": "StatefulPartitionedCall/functional_1_1/mobilenetv2_1.00_224_1/block_13_depthwise_BN_1/batchnorm/mul_1", "op": "Mul", "input": ["StatefulPartitionedCall/functional_1_1/mobilenetv2_1.00_224_1/block_13_depthwise_1/depthwise", "StatefulPartitionedCall/functional_1_1/mobilenetv2_1.00_224_1/block_13_depthwise_BN_1/batchnorm/mul"], "attr": {"T": {"type": "DT_FLOAT"}}}, {"name": "StatefulPartitionedCall/functional_1_1/mobilenetv2_1.00_224_1/block_13_depthwise_BN_1/batchnorm/add_1", "op": "AddV2", "input": ["StatefulPartitionedCall/functional_1_1/mobilenetv2_1.00_224_1/block_13_depthwise_BN_1/batchnorm/mul_1", "StatefulPartitionedCall/functional_1_1/mobilenetv2_1.00_224_1/block_13_depthwise_BN_1/batchnorm/sub"], "attr": {"T": {"type": "DT_FLOAT"}}}, {"name": "StatefulPartitionedCall/functional_1_1/mobilenetv2_1.00_224_1/block_13_depthwise_relu_1/Relu6", "op": "Relu6", "input": ["StatefulPartitionedCall/functional_1_1/mobilenetv2_1.00_224_1/block_13_depthwise_BN_1/batchnorm/add_1"], "attr": {"T": {"type": "DT_FLOAT"}}}, {"name": "StatefulPartitionedCall/functional_1_1/mobilenetv2_1.00_224_1/block_13_project_BN_1/batchnorm/add_1", "op": "_FusedConv2D", "input": ["StatefulPartitionedCall/functional_1_1/mobilenetv2_1.00_224_1/block_13_depthwise_relu_1/Relu6", "StatefulPartitionedCall/functional_1_1/mobilenetv2_1.00_224_1/block_13_project_1/convolution/merged_input", "StatefulPartitionedCall/functional_1_1/mobilenetv2_1.00_224_1/block_13_project_BN_1/batchnorm/sub"], "device": "/device:CPU:0", "attr": {"num_host_args": {"i": "0"}, "data_format": {"s": "TkhXQw=="}, "filter_format": {"s": "SFdJTw=="}, "strides": {"list": {"i": ["1", "1", "1", "1"]}}, "num_args": {"i": "1"}, "fused_ops": {"list": {"s": ["Qmlhc0FkZA=="]}}, "TArgs": {"list": {"type": ["DT_FLOAT"]}}, "padding": {"s": "U0FNRQ=="}, "use_cudnn_on_gpu": {"b": true}, "leakyrelu_alpha": {"f": 0.2}, "epsilon": {"f": 0.0}, "T": {"type": "DT_FLOAT"}, "explicit_paddings": {"list": {}}, "dilations": {"list": {"i": ["1", "1", "1", "1"]}}}}, {"name": "StatefulPartitionedCall/functional_1_1/mobilenetv2_1.00_224_1/block_14_expand_relu_1/Relu6", "op": "_FusedConv2D", "input": ["StatefulPartitionedCall/functional_1_1/mobilenetv2_1.00_224_1/block_13_project_BN_1/batchnorm/add_1", "StatefulPartitionedCall/functional_1_1/mobilenetv2_1.00_224_1/block_14_expand_1/convolution/merged_input", "StatefulPartitionedCall/functional_1_1/mobilenetv2_1.00_224_1/block_14_expand_BN_1/batchnorm/sub"], "device": "/device:CPU:0", "attr": {"num_host_args": {"i": "0"}, "data_format": {"s": "TkhXQw=="}, "filter_format": {"s": "SFdJTw=="}, "fused_ops": {"list": {"s": ["Qmlhc0FkZA==", "UmVsdTY="]}}, "num_args": {"i": "1"}, "strides": {"list": {"i": ["1", "1", "1", "1"]}}, "TArgs": {"list": {"type": ["DT_FLOAT"]}}, "padding": {"s": "U0FNRQ=="}, "use_cudnn_on_gpu": {"b": true}, "leakyrelu_alpha": {"f": 0.2}, "epsilon": {"f": 0.0}, "T": {"type": "DT_FLOAT"}, "explicit_paddings": {"list": {}}, "dilations": {"list": {"i": ["1", "1", "1", "1"]}}}}, {"name": "StatefulPartitionedCall/functional_1_1/mobilenetv2_1.00_224_1/block_14_depthwise_1/depthwise", "op": "DepthwiseConv2dNative", "input": ["StatefulPartitionedCall/functional_1_1/mobilenetv2_1.00_224_1/block_14_expand_relu_1/Relu6", "StatefulPartitionedCall/functional_1_1/mobilenetv2_1.00_224_1/block_14_depthwise_1/depthwise/ReadVariableOp"], "attr": {"padding": {"s": "U0FNRQ=="}, "data_format": {"s": "TkhXQw=="}, "T": {"type": "DT_FLOAT"}, "explicit_paddings": {"list": {}}, "dilations": {"list": {"i": ["1", "1", "1", "1"]}}, "strides": {"list": {"i": ["1", "1", "1", "1"]}}}}, {"name": "StatefulPartitionedCall/functional_1_1/mobilenetv2_1.00_224_1/block_14_depthwise_BN_1/batchnorm/mul_1", "op": "Mul", "input": ["StatefulPartitionedCall/functional_1_1/mobilenetv2_1.00_224_1/block_14_depthwise_1/depthwise", "StatefulPartitionedCall/functional_1_1/mobilenetv2_1.00_224_1/block_14_depthwise_BN_1/batchnorm/mul"], "attr": {"T": {"type": "DT_FLOAT"}}}, {"name": "StatefulPartitionedCall/functional_1_1/mobilenetv2_1.00_224_1/block_14_depthwise_BN_1/batchnorm/add_1", "op": "AddV2", "input": ["StatefulPartitionedCall/functional_1_1/mobilenetv2_1.00_224_1/block_14_depthwise_BN_1/batchnorm/mul_1", "StatefulPartitionedCall/functional_1_1/mobilenetv2_1.00_224_1/block_14_depthwise_BN_1/batchnorm/sub"], "attr": {"T": {"type": "DT_FLOAT"}}}, {"name": "StatefulPartitionedCall/functional_1_1/mobilenetv2_1.00_224_1/block_14_depthwise_relu_1/Relu6", "op": "Relu6", "input": ["StatefulPartitionedCall/functional_1_1/mobilenetv2_1.00_224_1/block_14_depthwise_BN_1/batchnorm/add_1"], "attr": {"T": {"type": "DT_FLOAT"}}}, {"name": "StatefulPartitionedCall/functional_1_1/mobilenetv2_1.00_224_1/block_14_project_BN_1/batchnorm/mul_1", "op": "Conv2D", "input": ["StatefulPartitionedCall/functional_1_1/mobilenetv2_1.00_224_1/block_14_depthwise_relu_1/Relu6", "StatefulPartitionedCall/functional_1_1/mobilenetv2_1.00_224_1/block_14_project_1/convolution/merged_input"], "device": "/device:CPU:0", "attr": {"padding": {"s": "U0FNRQ=="}, "data_format": {"s": "TkhXQw=="}, "use_cudnn_on_gpu": {"b": true}, "strides": {"list": {"i": ["1", "1", "1", "1"]}}, "T": {"type": "DT_FLOAT"}, "explicit_paddings": {"list": {}}, "dilations": {"list": {"i": ["1", "1", "1", "1"]}}}}, {"name": "StatefulPartitionedCall/functional_1_1/mobilenetv2_1.00_224_1/block_14_add_1/ArithmeticOptimizer/AddOpsRewrite_Leaf_1_Add", "op": "AddN", "input": ["StatefulPartitionedCall/functional_1_1/mobilenetv2_1.00_224_1/block_13_project_BN_1/batchnorm/add_1", "StatefulPartitionedCall/functional_1_1/mobilenetv2_1.00_224_1/block_14_project_BN_1/batchnorm/mul_1"], "attr": {"N": {"i": "2"}, "T": {"type": "DT_FLOAT"}, "_grappler_ArithmeticOptimizer_AddOpsRewriteStage": {"b": true}}}, {"name": "StatefulPartitionedCall/functional_1_1/mobilenetv2_1.00_224_1/block_14_add_1/ArithmeticOptimizer/AddOpsRewrite_Add", "op": "AddV2", "input": ["StatefulPartitionedCall/functional_1_1/mobilenetv2_1.00_224_1/block_14_project_BN_1/batchnorm/sub", "StatefulPartitionedCall/functional_1_1/mobilenetv2_1.00_224_1/block_14_add_1/ArithmeticOptimizer/AddOpsRewrite_Leaf_1_Add"], "attr": {"T": {"type": "DT_FLOAT"}, "_grappler_ArithmeticOptimizer_AddOpsRewriteStage": {"b": true}}}, {"name": "StatefulPartitionedCall/functional_1_1/mobilenetv2_1.00_224_1/block_15_expand_relu_1/Relu6", "op": "_FusedConv2D", "input": ["StatefulPartitionedCall/functional_1_1/mobilenetv2_1.00_224_1/block_14_add_1/ArithmeticOptimizer/AddOpsRewrite_Add", "StatefulPartitionedCall/functional_1_1/mobilenetv2_1.00_224_1/block_15_expand_1/convolution/merged_input", "StatefulPartitionedCall/functional_1_1/mobilenetv2_1.00_224_1/block_15_expand_BN_1/batchnorm/sub"], "device": "/device:CPU:0", "attr": {"num_host_args": {"i": "0"}, "data_format": {"s": "TkhXQw=="}, "filter_format": {"s": "SFdJTw=="}, "strides": {"list": {"i": ["1", "1", "1", "1"]}}, "num_args": {"i": "1"}, "fused_ops": {"list": {"s": ["Qmlhc0FkZA==", "UmVsdTY="]}}, "TArgs": {"list": {"type": ["DT_FLOAT"]}}, "padding": {"s": "U0FNRQ=="}, "use_cudnn_on_gpu": {"b": true}, "leakyrelu_alpha": {"f": 0.2}, "epsilon": {"f": 0.0}, "T": {"type": "DT_FLOAT"}, "explicit_paddings": {"list": {}}, "dilations": {"list": {"i": ["1", "1", "1", "1"]}}}}, {"name": "StatefulPartitionedCall/functional_1_1/mobilenetv2_1.00_224_1/block_15_depthwise_1/depthwise", "op": "DepthwiseConv2dNative", "input": ["StatefulPartitionedCall/functional_1_1/mobilenetv2_1.00_224_1/block_15_expand_relu_1/Relu6", "StatefulPartitionedCall/functional_1_1/mobilenetv2_1.00_224_1/block_15_depthwise_1/depthwise/ReadVariableOp"], "attr": {"padding": {"s": "U0FNRQ=="}, "data_format": {"s": "TkhXQw=="}, "T": {"type": "DT_FLOAT"}, "explicit_paddings": {"list": {}}, "dilations": {"list": {"i": ["1", "1", "1", "1"]}}, "strides": {"list": {"i": ["1", "1", "1", "1"]}}}}, {"name": "StatefulPartitionedCall/functional_1_1/mobilenetv2_1.00_224_1/block_15_depthwise_BN_1/batchnorm/mul_1", "op": "Mul", "input": ["StatefulPartitionedCall/functional_1_1/mobilenetv2_1.00_224_1/block_15_depthwise_1/depthwise", "StatefulPartitionedCall/functional_1_1/mobilenetv2_1.00_224_1/block_15_depthwise_BN_1/batchnorm/mul"], "attr": {"T": {"type": "DT_FLOAT"}}}, {"name": "StatefulPartitionedCall/functional_1_1/mobilenetv2_1.00_224_1/block_15_depthwise_BN_1/batchnorm/add_1", "op": "AddV2", "input": ["StatefulPartitionedCall/functional_1_1/mobilenetv2_1.00_224_1/block_15_depthwise_BN_1/batchnorm/mul_1", "StatefulPartitionedCall/functional_1_1/mobilenetv2_1.00_224_1/block_15_depthwise_BN_1/batchnorm/sub"], "attr": {"T": {"type": "DT_FLOAT"}}}, {"name": "StatefulPartitionedCall/functional_1_1/mobilenetv2_1.00_224_1/block_15_depthwise_relu_1/Relu6", "op": "Relu6", "input": ["StatefulPartitionedCall/functional_1_1/mobilenetv2_1.00_224_1/block_15_depthwise_BN_1/batchnorm/add_1"], "attr": {"T": {"type": "DT_FLOAT"}}}, {"name": "StatefulPartitionedCall/functional_1_1/mobilenetv2_1.00_224_1/block_15_project_BN_1/batchnorm/mul_1", "op": "Conv2D", "input": ["StatefulPartitionedCall/functional_1_1/mobilenetv2_1.00_224_1/block_15_depthwise_relu_1/Relu6", "StatefulPartitionedCall/functional_1_1/mobilenetv2_1.00_224_1/block_15_project_1/convolution/merged_input"], "device": "/device:CPU:0", "attr": {"padding": {"s": "U0FNRQ=="}, "data_format": {"s": "TkhXQw=="}, "strides": {"list": {"i": ["1", "1", "1", "1"]}}, "use_cudnn_on_gpu": {"b": true}, "T": {"type": "DT_FLOAT"}, "explicit_paddings": {"list": {}}, "dilations": {"list": {"i": ["1", "1", "1", "1"]}}}}, {"name": "StatefulPartitionedCall/functional_1_1/mobilenetv2_1.00_224_1/block_15_add_1/ArithmeticOptimizer/AddOpsRewrite_Leaf_1_Add", "op": "AddN", "input": ["StatefulPartitionedCall/functional_1_1/mobilenetv2_1.00_224_1/block_14_add_1/ArithmeticOptimizer/AddOpsRewrite_Add", "StatefulPartitionedCall/functional_1_1/mobilenetv2_1.00_224_1/block_15_project_BN_1/batchnorm/mul_1"], "attr": {"N": {"i": "2"}, "T": {"type": "DT_FLOAT"}, "_grappler_ArithmeticOptimizer_AddOpsRewriteStage": {"b": true}}}, {"name": "StatefulPartitionedCall/functional_1_1/mobilenetv2_1.00_224_1/block_15_add_1/ArithmeticOptimizer/AddOpsRewrite_Add", "op": "AddV2", "input": ["StatefulPartitionedCall/functional_1_1/mobilenetv2_1.00_224_1/block_15_project_BN_1/batchnorm/sub", "StatefulPartitionedCall/functional_1_1/mobilenetv2_1.00_224_1/block_15_add_1/ArithmeticOptimizer/AddOpsRewrite_Leaf_1_Add"], "attr": {"T": {"type": "DT_FLOAT"}, "_grappler_ArithmeticOptimizer_AddOpsRewriteStage": {"b": true}}}, {"name": "StatefulPartitionedCall/functional_1_1/mobilenetv2_1.00_224_1/block_16_expand_relu_1/Relu6", "op": "_FusedConv2D", "input": ["StatefulPartitionedCall/functional_1_1/mobilenetv2_1.00_224_1/block_15_add_1/ArithmeticOptimizer/AddOpsRewrite_Add", "StatefulPartitionedCall/functional_1_1/mobilenetv2_1.00_224_1/block_16_expand_1/convolution/merged_input", "StatefulPartitionedCall/functional_1_1/mobilenetv2_1.00_224_1/block_16_expand_BN_1/batchnorm/sub"], "device": "/device:CPU:0", "attr": {"num_host_args": {"i": "0"}, "data_format": {"s": "TkhXQw=="}, "filter_format": {"s": "SFdJTw=="}, "strides": {"list": {"i": ["1", "1", "1", "1"]}}, "num_args": {"i": "1"}, "fused_ops": {"list": {"s": ["Qmlhc0FkZA==", "UmVsdTY="]}}, "TArgs": {"list": {"type": ["DT_FLOAT"]}}, "padding": {"s": "U0FNRQ=="}, "use_cudnn_on_gpu": {"b": true}, "leakyrelu_alpha": {"f": 0.2}, "epsilon": {"f": 0.0}, "T": {"type": "DT_FLOAT"}, "explicit_paddings": {"list": {}}, "dilations": {"list": {"i": ["1", "1", "1", "1"]}}}}, {"name": "StatefulPartitionedCall/functional_1_1/mobilenetv2_1.00_224_1/block_16_depthwise_1/depthwise", "op": "DepthwiseConv2dNative", "input": ["StatefulPartitionedCall/functional_1_1/mobilenetv2_1.00_224_1/block_16_expand_relu_1/Relu6", "StatefulPartitionedCall/functional_1_1/mobilenetv2_1.00_224_1/block_16_depthwise_1/depthwise/ReadVariableOp"], "attr": {"padding": {"s": "U0FNRQ=="}, "data_format": {"s": "TkhXQw=="}, "T": {"type": "DT_FLOAT"}, "explicit_paddings": {"list": {}}, "dilations": {"list": {"i": ["1", "1", "1", "1"]}}, "strides": {"list": {"i": ["1", "1", "1", "1"]}}}}, {"name": "StatefulPartitionedCall/functional_1_1/mobilenetv2_1.00_224_1/block_16_depthwise_BN_1/batchnorm/mul_1", "op": "Mul", "input": ["StatefulPartitionedCall/functional_1_1/mobilenetv2_1.00_224_1/block_16_depthwise_1/depthwise", "StatefulPartitionedCall/functional_1_1/mobilenetv2_1.00_224_1/block_16_depthwise_BN_1/batchnorm/mul"], "attr": {"T": {"type": "DT_FLOAT"}}}, {"name": "StatefulPartitionedCall/functional_1_1/mobilenetv2_1.00_224_1/block_16_depthwise_BN_1/batchnorm/add_1", "op": "AddV2", "input": ["StatefulPartitionedCall/functional_1_1/mobilenetv2_1.00_224_1/block_16_depthwise_BN_1/batchnorm/mul_1", "StatefulPartitionedCall/functional_1_1/mobilenetv2_1.00_224_1/block_16_depthwise_BN_1/batchnorm/sub"], "attr": {"T": {"type": "DT_FLOAT"}}}, {"name": "StatefulPartitionedCall/functional_1_1/mobilenetv2_1.00_224_1/block_16_depthwise_relu_1/Relu6", "op": "Relu6", "input": ["StatefulPartitionedCall/functional_1_1/mobilenetv2_1.00_224_1/block_16_depthwise_BN_1/batchnorm/add_1"], "attr": {"T": {"type": "DT_FLOAT"}}}, {"name": "StatefulPartitionedCall/functional_1_1/mobilenetv2_1.00_224_1/block_16_project_BN_1/batchnorm/add_1", "op": "_FusedConv2D", "input": ["StatefulPartitionedCall/functional_1_1/mobilenetv2_1.00_224_1/block_16_depthwise_relu_1/Relu6", "StatefulPartitionedCall/functional_1_1/mobilenetv2_1.00_224_1/block_16_project_1/convolution/merged_input", "StatefulPartitionedCall/functional_1_1/mobilenetv2_1.00_224_1/block_16_project_BN_1/batchnorm/sub"], "device": "/device:CPU:0", "attr": {"num_host_args": {"i": "0"}, "data_format": {"s": "TkhXQw=="}, "filter_format": {"s": "SFdJTw=="}, "strides": {"list": {"i": ["1", "1", "1", "1"]}}, "num_args": {"i": "1"}, "fused_ops": {"list": {"s": ["Qmlhc0FkZA=="]}}, "TArgs": {"list": {"type": ["DT_FLOAT"]}}, "padding": {"s": "U0FNRQ=="}, "use_cudnn_on_gpu": {"b": true}, "leakyrelu_alpha": {"f": 0.2}, "epsilon": {"f": 0.0}, "T": {"type": "DT_FLOAT"}, "explicit_paddings": {"list": {}}, "dilations": {"list": {"i": ["1", "1", "1", "1"]}}}}, {"name": "StatefulPartitionedCall/functional_1_1/mobilenetv2_1.00_224_1/out_relu_1/Relu6", "op": "_FusedConv2D", "input": ["StatefulPartitionedCall/functional_1_1/mobilenetv2_1.00_224_1/block_16_project_BN_1/batchnorm/add_1", "StatefulPartitionedCall/functional_1_1/mobilenetv2_1.00_224_1/Conv_1_1/convolution/merged_input", "StatefulPartitionedCall/functional_1_1/mobilenetv2_1.00_224_1/Conv_1_bn_1/batchnorm/sub"], "device": "/device:CPU:0", "attr": {"num_host_args": {"i": "0"}, "data_format": {"s": "TkhXQw=="}, "filter_format": {"s": "SFdJTw=="}, "fused_ops": {"list": {"s": ["Qmlhc0FkZA==", "UmVsdTY="]}}, "num_args": {"i": "1"}, "strides": {"list": {"i": ["1", "1", "1", "1"]}}, "TArgs": {"list": {"type": ["DT_FLOAT"]}}, "padding": {"s": "VkFMSUQ="}, "use_cudnn_on_gpu": {"b": true}, "leakyrelu_alpha": {"f": 0.2}, "epsilon": {"f": 0.0}, "T": {"type": "DT_FLOAT"}, "explicit_paddings": {"list": {}}, "dilations": {"list": {"i": ["1", "1", "1", "1"]}}}}, {"name": "StatefulPartitionedCall/functional_1_1/global_average_pooling2d_1/Mean", "op": "Mean", "input": ["StatefulPartitionedCall/functional_1_1/mobilenetv2_1.00_224_1/out_relu_1/Relu6", "StatefulPartitionedCall/functional_1_1/global_average_pooling2d_1/Mean/reduction_indices"], "attr": {"Tidx": {"type": "DT_INT32"}, "T": {"type": "DT_FLOAT"}, "keep_dims": {"b": false}}}, {"name": "StatefulPartitionedCall/functional_1_1/dense_1/BiasAdd", "op": "_FusedMatMul", "input": ["StatefulPartitionedCall/functional_1_1/global_average_pooling2d_1/Mean", "StatefulPartitionedCall/functional_1_1/dense_1/Cast/ReadVariableOp", "StatefulPartitionedCall/functional_1_1/dense_1/BiasAdd/ReadVariableOp"], "device": "/device:CPU:0", "attr": {"transpose_a": {"b": false}, "transpose_b": {"b": false}, "fused_ops": {"list": {"s": ["Qmlhc0FkZA=="]}}, "num_args": {"i": "1"}, "leakyrelu_alpha": {"f": 0.2}, "epsilon": {"f": 0.0}, "T": {"type": "DT_FLOAT"}}}, {"name": "StatefulPartitionedCall/functional_1_1/dense_1/Softmax", "op": "Softmax", "input": ["StatefulPartitionedCall/functional_1_1/dense_1/BiasAdd"], "attr": {"T": {"type": "DT_FLOAT"}}}, {"name": "Identity", "op": "Identity", "input": ["StatefulPartitionedCall/functional_1_1/dense_1/Softmax"], "attr": {"T": {"type": "DT_FLOAT"}}}], "library": {}, "versions": {"producer": 2129}}, "weightsManifest": [{"paths": ["group1-shard1of1.bin"], "weights": [{"name": "StatefulPartitionedCall/functional_1_1/mobilenetv2_1.00_224_1/block_15_project_BN_1/batchnorm/sub", "shape": [160], "dtype": "float32", "quantization": {"dtype": "uint8", "min": -13.639630695417816, "scale": 0.14825685538497627, "original_dtype": "float32"}}, {"name": "StatefulPartitionedCall/functional_1_1/mobilenetv2_1.00_224_1/block_14_project_BN_1/batchnorm/sub", "shape": [160], "dtype": "float32", "quantization": {"dtype": "uint8", "min": -7.416812762092142, "scale": 0.0633915620691636, "original_dtype": "float32"}}, {"name": "StatefulPartitionedCall/functional_1_1/mobilenetv2_1.00_224_1/block_12_project_BN_1/batchnorm/sub", "shape": [96], "dtype": "float32", "quantization": {"dtype": "uint8", "min": -10.617714788399491, "scale": 0.09652467989454082, "original_dtype": "float32"}}, {"name": "StatefulPartitionedCall/functional_1_1/mobilenetv2_1.00_224_1/block_11_project_BN_1/batchnorm/sub", "shape": [96], "dtype": "float32", "quantization": {"dtype": "uint8", "min": -10.514113706700941, "scale": 0.0808777977438534, "original_dtype": "float32"}}, {"name": "StatefulPartitionedCall/functional_1_1/mobilenetv2_1.00_224_1/block_9_project_BN_1/batchnorm/sub", "shape": [64], "dtype": "float32", "quantization": {"dtype": "uint8", "min": -5.044987035265156, "scale": 0.055439417969946767, "original_dtype": "float32"}}, {"name": "StatefulPartitionedCall/functional_1_1/mobilenetv2_1.00_224_1/block_8_project_BN_1/batchnorm/sub", "shape": [64], "dtype": "float32", "quantization": {"dtype": "uint8", "min": -5.4850096422083245, "scale": 0.040629701053394994, "original_dtype": "float32"}}, {"name": "StatefulPartitionedCall/functional_1_1/mobilenetv2_1.00_224_1/block_7_project_BN_1/batchnorm/sub", "shape": [64], "dtype": "float32", "quantization": {"dtype": "uint8", "min": -10.748661661148072, "scale": 0.05747947412378648, "original_dtype": "float32"}}, {"name": "StatefulPartitionedCall/functional_1_1/mobilenetv2_1.00_224_1/block_5_project_BN_1/batchnorm/sub", "shape": [32], "dtype": "float32", "quantization": {"dtype": "uint8", "min": -16.61388438355689, "scale": 0.08348685619877834, "original_dtype": "float32"}}, {"name": "StatefulPartitionedCall/functional_1_1/mobilenetv2_1.00_224_1/block_4_project_BN_1/batchnorm/sub", "shape": [32], "dtype": "float32", "quantization": {"dtype": "uint8", "min": -15.023841072531308, "scale": 0.11923683390897863, "original_dtype": "float32"}}, {"name": "StatefulPartitionedCall/functional_1_1/mobilenetv2_1.00_224_1/block_2_project_BN_1/batchnorm/sub", "shape": [24], "dtype": "float32", "quantization": {"dtype": "uint8", "min": -26.774603091969208, "scale": 0.2288427614698223, "original_dtype": "float32"}}, {"name": "StatefulPartitionedCall/functional_1_1/rescaling_1/Cast/x", "shape": [], "dtype": "float32", "quantization": {"dtype": "uint8", "min": 0.007843137718737125, "scale": 1.0, "original_dtype": "float32"}}, {"name": "StatefulPartitionedCall/functional_1_1/rescaling_1/Cast_1", "shape": [], "dtype": "float32", "quantization": {"dtype": "uint8", "min": -1.0, "scale": 1.0, "original_dtype": "float32"}}, {"name": "StatefulPartitionedCall/functional_1_1/mobilenetv2_1.00_224_1/Conv1_1/convolution/merged_input", "shape": [3, 3, 3, 32], "dtype": "float32", "quantization": {"dtype": "uint8", "min": -3.4970608412050734, "scale": 0.027976486729640586, "original_dtype": "float32"}}, {"name": "StatefulPartitionedCall/functional_1_1/mobilenetv2_1.00_224_1/bn_Conv1_1/batchnorm/sub", "shape": [32], "dtype": "float32", "quantization": {"dtype": "uint8", "min": -6.910584143096325, "scale": 0.04576545790130017, "original_dtype": "float32"}}, {"name": "StatefulPartitionedCall/functional_1_1/mobilenetv2_1.00_224_1/expanded_conv_depthwise_1/depthwise/ReadVariableOp", "shape": [3, 3, 32, 1], "dtype": "float32", "quantization": {"dtype": "uint8", "min": -25.74281422484155, "scale": 0.19355499417174096, "original_dtype": "float32"}}, {"name": "StatefulPartitionedCall/functional_1_1/mobilenetv2_1.00_224_1/expanded_conv_depthwise_BN_1/batchnorm/mul", "shape": [32], "dtype": "float32", "quantization": {"dtype": "uint8", "min": -0.1985134197216408, "scale": 0.0992567098608204, "original_dtype": "float32"}}, {"name": "StatefulPartitionedCall/functional_1_1/mobilenetv2_1.00_224_1/expanded_conv_depthwise_BN_1/batchnorm/sub", "shape": [32], "dtype": "float32", "quantization": {"dtype": "uint8", "min": -5.056268355425667, "scale": 0.03511297469045602, "original_dtype": "float32"}}, {"name": "StatefulPartitionedCall/functional_1_1/mobilenetv2_1.00_224_1/expanded_conv_project_1/convolution/merged_input", "shape": [1, 1, 32, 16], "dtype": "float32", "quantization": {"dtype": "uint8", "min": -5.4108210133571255, "scale": 0.038104373333500884, "original_dtype": "float32"}}, {"name": "StatefulPartitionedCall/functional_1_1/mobilenetv2_1.00_224_1/expanded_conv_project_BN_1/batchnorm/sub", "shape": [16], "dtype": "float32", "quantization": {"dtype": "uint8", "min": -18.871723010493263, "scale": 0.1684975268794041, "original_dtype": "float32"}}, {"name": "StatefulPartitionedCall/functional_1_1/mobilenetv2_1.00_224_1/block_1_expand_1/convolution/merged_input", "shape": [1, 1, 16, 96], "dtype": "float32", "quantization": {"dtype": "uint8", "min": -1.225209737291523, "scale": 0.009647320766074984, "original_dtype": "float32"}}, {"name": "StatefulPartitionedCall/functional_1_1/mobilenetv2_1.00_224_1/block_1_expand_BN_1/batchnorm/sub", "shape": [96], "dtype": "float32", "quantization": {"dtype": "uint8", "min": -2.236878787769991, "scale": 0.027960984847124885, "original_dtype": "float32"}}, {"name": "StatefulPartitionedCall/functional_1_1/mobilenetv2_1.00_224_1/block_1_pad_1/Const", "shape": [4, 2], "dtype": "int32"}, {"name": "StatefulPartitionedCall/functional_1_1/mobilenetv2_1.00_224_1/block_1_depthwise_1/depthwise/ReadVariableOp", "shape": [3, 3, 96, 1], "dtype": "float32", "quantization": {"dtype": "uint8", "min": -3.0725193799710744, "scale": 0.025392722148521275, "original_dtype": "float32"}}, {"name": "StatefulPartitionedCall/functional_1_1/mobilenetv2_1.00_224_1/block_1_depthwise_BN_1/batchnorm/mul", "shape": [96], "dtype": "float32", "quantization": {"dtype": "uint8", "min": 0.04727127403020859, "scale": 0.011280817991378261, "original_dtype": "float32"}}, {"name": "StatefulPartitionedCall/functional_1_1/mobilenetv2_1.00_224_1/block_1_depthwise_BN_1/batchnorm/sub", "shape": [96], "dtype": "float32", "quantization": {"dtype": "uint8", "min": -15.770488088271197, "scale": 0.09734869190290862, "original_dtype": "float32"}}, {"name": "StatefulPartitionedCall/functional_1_1/mobilenetv2_1.00_224_1/block_1_project_1/convolution/merged_input", "shape": [1, 1, 96, 24], "dtype": "float32", "quantization": {"dtype": "uint8", "min": -3.5974495784909117, "scale": 0.023209352119296204, "original_dtype": "float32"}}, {"name": "StatefulPartitionedCall/functional_1_1/mobilenetv2_1.00_224_1/block_1_project_BN_1/batchnorm/sub", "shape": [24], "dtype": "float32", "quantization": {"dtype": "uint8", "min": -14.33416815365062, "scale": 0.11467334522920496, "original_dtype": "float32"}}, {"name": "StatefulPartitionedCall/functional_1_1/mobilenetv2_1.00_224_1/block_2_expand_1/convolution/merged_input", "shape": [1, 1, 24, 144], "dtype": "float32", "quantization": {"dtype": "uint8", "min": -0.5410906053056904, "scale": 0.0037316593469357956, "original_dtype": "float32"}}, {"name": "StatefulPartitionedCall/functional_1_1/mobilenetv2_1.00_224_1/block_2_expand_BN_1/batchnorm/sub", "shape": [144], "dtype": "float32", "quantization": {"dtype": "uint8", "min": -2.5821852964513443, "scale": 0.02869094773834827, "original_dtype": "float32"}}, {"name": "StatefulPartitionedCall/functional_1_1/mobilenetv2_1.00_224_1/block_2_depthwise_1/depthwise/ReadVariableOp", "shape": [3, 3, 144, 1], "dtype": "float32", "quantization": {"dtype": "uint8", "min": -7.222774090486414, "scale": 0.05872174057306028, "original_dtype": "float32"}}, {"name": "StatefulPartitionedCall/functional_1_1/mobilenetv2_1.00_224_1/block_2_depthwise_BN_1/batchnorm/mul", "shape": [144], "dtype": "float32", "quantization": {"dtype": "uint8", "min": 0.11581982672214508, "scale": 0.09031831370849236, "original_dtype": "float32"}}, {"name": "StatefulPartitionedCall/functional_1_1/mobilenetv2_1.00_224_1/block_2_depthwise_BN_1/batchnorm/sub", "shape": [144], "dtype": "float32", "quantization": {"dtype": "uint8", "min": -3.8259587418799303, "scale": 0.03904039532530541, "original_dtype": "float32"}}, {"name": "StatefulPartitionedCall/functional_1_1/mobilenetv2_1.00_224_1/block_2_project_1/convolution/merged_input", "shape": [1, 1, 144, 24], "dtype": "float32", "quantization": {"dtype": "uint8", "min": -3.311779493444106, "scale": 0.02714573355282054, "original_dtype": "float32"}}, {"name": "StatefulPartitionedCall/functional_1_1/mobilenetv2_1.00_224_1/block_3_expand_1/convolution/merged_input", "shape": [1, 1, 24, 144], "dtype": "float32", "quantization": {"dtype": "uint8", "min": -0.3184591070109723, "scale": 0.0029762533365511427, "original_dtype": "float32"}}, {"name": "StatefulPartitionedCall/functional_1_1/mobilenetv2_1.00_224_1/block_3_expand_BN_1/batchnorm/sub", "shape": [144], "dtype": "float32", "quantization": {"dtype": "uint8", "min": -2.354716050391104, "scale": 0.02505017074884153, "original_dtype": "float32"}}, {"name": "StatefulPartitionedCall/functional_1_1/mobilenetv2_1.00_224_1/block_3_pad_1/Const", "shape": [4, 2], "dtype": "int32"}, {"name": "StatefulPartitionedCall/functional_1_1/mobilenetv2_1.00_224_1/block_3_depthwise_1/depthwise/ReadVariableOp", "shape": [3, 3, 144, 1], "dtype": "float32", "quantization": {"dtype": "uint8", "min": -2.284218236511829, "scale": 0.017985970366234873, "original_dtype": "float32"}}, {"name": "StatefulPartitionedCall/functional_1_1/mobilenetv2_1.00_224_1/block_3_depthwise_BN_1/batchnorm/mul", "shape": [144], "dtype": "float32", "quantization": {"dtype": "uint8", "min": 0.10760149359703064, "scale": 0.005762596340740428, "original_dtype": "float32"}}, {"name": "StatefulPartitionedCall/functional_1_1/mobilenetv2_1.00_224_1/block_3_depthwise_BN_1/batchnorm/sub", "shape": [144], "dtype": "float32", "quantization": {"dtype": "uint8", "min": -2.5507435368556606, "scale": 0.03446950725480622, "original_dtype": "float32"}}, {"name": "StatefulPartitionedCall/functional_1_1/mobilenetv2_1.00_224_1/block_3_project_1/convolution/merged_input", "shape": [1, 1, 144, 32], "dtype": "float32", "quantization": {"dtype": "uint8", "min": -1.8997899672564338, "scale": 0.016962410421932445, "original_dtype": "float32"}}, {"name": "StatefulPartitionedCall/functional_1_1/mobilenetv2_1.00_224_1/block_3_project_BN_1/batchnorm/sub", "shape": [32], "dtype": "float32", "quantization": {"dtype": "uint8", "min": -16.60473518371582, "scale": 0.10996513366699219, "original_dtype": "float32"}}, {"name": "StatefulPartitionedCall/functional_1_1/mobilenetv2_1.00_224_1/block_4_expand_1/convolution/merged_input", "shape": [1, 1, 32, 192], "dtype": "float32", "quantization": {"dtype": "uint8", "min": -0.2406179873382344, "scale": 0.0018652557158002666, "original_dtype": "float32"}}, {"name": "StatefulPartitionedCall/functional_1_1/mobilenetv2_1.00_224_1/block_4_expand_BN_1/batchnorm/sub", "shape": [192], "dtype": "float32", "quantization": {"dtype": "uint8", "min": -2.6096201616175034, "scale": 0.022496725531185376, "original_dtype": "float32"}}, {"name": "StatefulPartitionedCall/functional_1_1/mobilenetv2_1.00_224_1/block_4_depthwise_1/depthwise/ReadVariableOp", "shape": [3, 3, 192, 1], "dtype": "float32", "quantization": {"dtype": "uint8", "min": -4.979864240160175, "scale": 0.03716316597134459, "original_dtype": "float32"}}, {"name": "StatefulPartitionedCall/functional_1_1/mobilenetv2_1.00_224_1/block_4_depthwise_BN_1/batchnorm/mul", "shape": [192], "dtype": "float32", "quantization": {"dtype": "uint8", "min": 0.2604961395263672, "scale": 0.020067944246179917, "original_dtype": "float32"}}, {"name": "StatefulPartitionedCall/functional_1_1/mobilenetv2_1.00_224_1/block_4_depthwise_BN_1/batchnorm/sub", "shape": [192], "dtype": "float32", "quantization": {"dtype": "uint8", "min": -4.73334498685949, "scale": 0.07171734828574984, "original_dtype": "float32"}}, {"name": "StatefulPartitionedCall/functional_1_1/mobilenetv2_1.00_224_1/block_4_project_1/convolution/merged_input", "shape": [1, 1, 192, 32], "dtype": "float32", "quantization": {"dtype": "uint8", "min": -2.753603914672253, "scale": 0.0186054318558936, "original_dtype": "float32"}}, {"name": "StatefulPartitionedCall/functional_1_1/mobilenetv2_1.00_224_1/block_5_expand_1/convolution/merged_input", "shape": [1, 1, 32, 192], "dtype": "float32", "quantization": {"dtype": "uint8", "min": -0.177726032278117, "scale": 0.0014449270916920083, "original_dtype": "float32"}}, {"name": "StatefulPartitionedCall/functional_1_1/mobilenetv2_1.00_224_1/block_5_expand_BN_1/batchnorm/sub", "shape": [192], "dtype": "float32", "quantization": {"dtype": "uint8", "min": -1.5887043518178603, "scale": 0.019141016286962173, "original_dtype": "float32"}}, {"name": "StatefulPartitionedCall/functional_1_1/mobilenetv2_1.00_224_1/block_5_depthwise_1/depthwise/ReadVariableOp", "shape": [3, 3, 192, 1], "dtype": "float32", "quantization": {"dtype": "uint8", "min": -4.526471190359079, "scale": 0.0325645409378351, "original_dtype": "float32"}}, {"name": "StatefulPartitionedCall/functional_1_1/mobilenetv2_1.00_224_1/block_5_depthwise_BN_1/batchnorm/mul", "shape": [192], "dtype": "float32", "quantization": {"dtype": "uint8", "min": 0.20254257321357727, "scale": 0.014486877474130369, "original_dtype": "float32"}}, {"name": "StatefulPartitionedCall/functional_1_1/mobilenetv2_1.00_224_1/block_5_depthwise_BN_1/batchnorm/sub", "shape": [192], "dtype": "float32", "quantization": {"dtype": "uint8", "min": -32.274502103468954, "scale": 0.1605696622063132, "original_dtype": "float32"}}, {"name": "StatefulPartitionedCall/functional_1_1/mobilenetv2_1.00_224_1/block_5_project_1/convolution/merged_input", "shape": [1, 1, 192, 32], "dtype": "float32", "quantization": {"dtype": "uint8", "min": -2.3845758391361613, "scale": 0.018776187709733553, "original_dtype": "float32"}}, {"name": "StatefulPartitionedCall/functional_1_1/mobilenetv2_1.00_224_1/block_6_expand_1/convolution/merged_input", "shape": [1, 1, 32, 192], "dtype": "float32", "quantization": {"dtype": "uint8", "min": -0.23910969004911536, "scale": 0.0018976959527707568, "original_dtype": "float32"}}, {"name": "StatefulPartitionedCall/functional_1_1/mobilenetv2_1.00_224_1/block_6_expand_BN_1/batchnorm/sub", "shape": [192], "dtype": "float32", "quantization": {"dtype": "uint8", "min": -1.851106138790355, "scale": 0.015425884489919625, "original_dtype": "float32"}}, {"name": "StatefulPartitionedCall/functional_1_1/mobilenetv2_1.00_224_1/block_6_pad_1/Const", "shape": [4, 2], "dtype": "int32"}, {"name": "StatefulPartitionedCall/functional_1_1/mobilenetv2_1.00_224_1/block_6_depthwise_1/depthwise/ReadVariableOp", "shape": [3, 3, 192, 1], "dtype": "float32", "quantization": {"dtype": "uint8", "min": -1.9912644554586971, "scale": 0.01659387046215581, "original_dtype": "float32"}}, {"name": "StatefulPartitionedCall/functional_1_1/mobilenetv2_1.00_224_1/block_6_depthwise_BN_1/batchnorm/mul", "shape": [192], "dtype": "float32", "quantization": {"dtype": "uint8", "min": 0.1306571513414383, "scale": 0.003914944506159016, "original_dtype": "float32"}}, {"name": "StatefulPartitionedCall/functional_1_1/mobilenetv2_1.00_224_1/block_6_depthwise_BN_1/batchnorm/sub", "shape": [192], "dtype": "float32", "quantization": {"dtype": "uint8", "min": -0.6173578196880865, "scale": 0.03086789098440432, "original_dtype": "float32"}}, {"name": "StatefulPartitionedCall/functional_1_1/mobilenetv2_1.00_224_1/block_6_project_1/convolution/merged_input", "shape": [1, 1, 192, 64], "dtype": "float32", "quantization": {"dtype": "uint8", "min": -2.0555318701500984, "scale": 0.014475576550352807, "original_dtype": "float32"}}, {"name": "StatefulPartitionedCall/functional_1_1/mobilenetv2_1.00_224_1/block_6_project_BN_1/batchnorm/sub", "shape": [64], "dtype": "float32", "quantization": {"dtype": "uint8", "min": -13.90709571838379, "scale": 0.1363440756704293, "original_dtype": "float32"}}, {"name": "StatefulPartitionedCall/functional_1_1/mobilenetv2_1.00_224_1/block_7_expand_1/convolution/merged_input", "shape": [1, 1, 64, 384], "dtype": "float32", "quantization": {"dtype": "uint8", "min": -0.20089475769622653, "scale": 0.0015818484857970593, "original_dtype": "float32"}}, {"name": "StatefulPartitionedCall/functional_1_1/mobilenetv2_1.00_224_1/block_7_expand_BN_1/batchnorm/sub", "shape": [384], "dtype": "float32", "quantization": {"dtype": "uint8", "min": -1.529609922801747, "scale": 0.019362150921541102, "original_dtype": "float32"}}, {"name": "StatefulPartitionedCall/functional_1_1/mobilenetv2_1.00_224_1/block_7_depthwise_1/depthwise/ReadVariableOp", "shape": [3, 3, 384, 1], "dtype": "float32", "quantization": {"dtype": "uint8", "min": -3.284042624866261, "scale": 0.022965333041022804, "original_dtype": "float32"}}, {"name": "StatefulPartitionedCall/functional_1_1/mobilenetv2_1.00_224_1/block_7_depthwise_BN_1/batchnorm/mul", "shape": [384], "dtype": "float32", "quantization": {"dtype": "uint8", "min": 0.41098228096961975, "scale": 0.06788563389404147, "original_dtype": "float32"}}, {"name": "StatefulPartitionedCall/functional_1_1/mobilenetv2_1.00_224_1/block_7_depthwise_BN_1/batchnorm/sub", "shape": [384], "dtype": "float32", "quantization": {"dtype": "uint8", "min": -9.288695316688687, "scale": 0.08444268469716988, "original_dtype": "float32"}}, {"name": "StatefulPartitionedCall/functional_1_1/mobilenetv2_1.00_224_1/block_7_project_1/convolution/merged_input", "shape": [1, 1, 384, 64], "dtype": "float32", "quantization": {"dtype": "uint8", "min": -2.263091457591337, "scale": 0.01781961777630974, "original_dtype": "float32"}}, {"name": "StatefulPartitionedCall/functional_1_1/mobilenetv2_1.00_224_1/block_8_expand_1/convolution/merged_input", "shape": [1, 1, 64, 384], "dtype": "float32", "quantization": {"dtype": "uint8", "min": -0.19747808049706853, "scale": 0.0014628005962745816, "original_dtype": "float32"}}, {"name": "StatefulPartitionedCall/functional_1_1/mobilenetv2_1.00_224_1/block_8_expand_BN_1/batchnorm/sub", "shape": [384], "dtype": "float32", "quantization": {"dtype": "uint8", "min": -1.4630598068237304, "scale": 0.014485740661621093, "original_dtype": "float32"}}, {"name": "StatefulPartitionedCall/functional_1_1/mobilenetv2_1.00_224_1/block_8_depthwise_1/depthwise/ReadVariableOp", "shape": [3, 3, 384, 1], "dtype": "float32", "quantization": {"dtype": "uint8", "min": -3.421118626875036, "scale": 0.02693794194389792, "original_dtype": "float32"}}, {"name": "StatefulPartitionedCall/functional_1_1/mobilenetv2_1.00_224_1/block_8_depthwise_BN_1/batchnorm/mul", "shape": [384], "dtype": "float32", "quantization": {"dtype": "uint8", "min": 0.21323618292808533, "scale": 0.024046088784348732, "original_dtype": "float32"}}, {"name": "StatefulPartitionedCall/functional_1_1/mobilenetv2_1.00_224_1/block_8_depthwise_BN_1/batchnorm/sub", "shape": [384], "dtype": "float32", "quantization": {"dtype": "uint8", "min": -6.8816128599877455, "scale": 0.05376260046865426, "original_dtype": "float32"}}, {"name": "StatefulPartitionedCall/functional_1_1/mobilenetv2_1.00_224_1/block_8_project_1/convolution/merged_input", "shape": [1, 1, 384, 64], "dtype": "float32", "quantization": {"dtype": "uint8", "min": -1.579629160376156, "scale": 0.012536739368064731, "original_dtype": "float32"}}, {"name": "StatefulPartitionedCall/functional_1_1/mobilenetv2_1.00_224_1/block_9_expand_1/convolution/merged_input", "shape": [1, 1, 64, 384], "dtype": "float32", "quantization": {"dtype": "uint8", "min": -0.1681944973328534, "scale": 0.0013243661207311293, "original_dtype": "float32"}}, {"name": "StatefulPartitionedCall/functional_1_1/mobilenetv2_1.00_224_1/block_9_expand_BN_1/batchnorm/sub", "shape": [384], "dtype": "float32", "quantization": {"dtype": "uint8", "min": -1.38051778568941, "scale": 0.011901015393874224, "original_dtype": "float32"}}, {"name": "StatefulPartitionedCall/functional_1_1/mobilenetv2_1.00_224_1/block_9_depthwise_1/depthwise/ReadVariableOp", "shape": [3, 3, 384, 1], "dtype": "float32", "quantization": {"dtype": "uint8", "min": -2.8299621890572944, "scale": 0.019789945378023036, "original_dtype": "float32"}}, {"name": "StatefulPartitionedCall/functional_1_1/mobilenetv2_1.00_224_1/block_9_depthwise_BN_1/batchnorm/mul", "shape": [384], "dtype": "float32", "quantization": {"dtype": "uint8", "min": 0.36934712529182434, "scale": 0.015017458854937086, "original_dtype": "float32"}}, {"name": "StatefulPartitionedCall/functional_1_1/mobilenetv2_1.00_224_1/block_9_depthwise_BN_1/batchnorm/sub", "shape": [384], "dtype": "float32", "quantization": {"dtype": "uint8", "min": -5.958609212613573, "scale": 0.05466613956526214, "original_dtype": "float32"}}, {"name": "StatefulPartitionedCall/functional_1_1/mobilenetv2_1.00_224_1/block_9_project_1/convolution/merged_input", "shape": [1, 1, 384, 64], "dtype": "float32", "quantization": {"dtype": "uint8", "min": -2.804937343036427, "scale": 0.01908120641521379, "original_dtype": "float32"}}, {"name": "StatefulPartitionedCall/functional_1_1/mobilenetv2_1.00_224_1/block_10_expand_1/convolution/merged_input", "shape": [1, 1, 64, 384], "dtype": "float32", "quantization": {"dtype": "uint8", "min": -0.21372974479899687, "scale": 0.0016191647333257339, "original_dtype": "float32"}}, {"name": "StatefulPartitionedCall/functional_1_1/mobilenetv2_1.00_224_1/block_10_expand_BN_1/batchnorm/sub", "shape": [384], "dtype": "float32", "quantization": {"dtype": "uint8", "min": -1.9344372987747194, "scale": 0.016255775619955625, "original_dtype": "float32"}}, {"name": "StatefulPartitionedCall/functional_1_1/mobilenetv2_1.00_224_1/block_10_depthwise_1/depthwise/ReadVariableOp", "shape": [3, 3, 384, 1], "dtype": "float32", "quantization": {"dtype": "uint8", "min": -4.09272429522346, "scale": 0.03410603579352884, "original_dtype": "float32"}}, {"name": "StatefulPartitionedCall/functional_1_1/mobilenetv2_1.00_224_1/block_10_depthwise_BN_1/batchnorm/mul", "shape": [384], "dtype": "float32", "quantization": {"dtype": "uint8", "min": 0.18230171501636505, "scale": 0.007750932083410375, "original_dtype": "float32"}}, {"name": "StatefulPartitionedCall/functional_1_1/mobilenetv2_1.00_224_1/block_10_depthwise_BN_1/batchnorm/sub", "shape": [384], "dtype": "float32", "quantization": {"dtype": "uint8", "min": -4.039753027523266, "scale": 0.03740512062521542, "original_dtype": "float32"}}, {"name": "StatefulPartitionedCall/functional_1_1/mobilenetv2_1.00_224_1/block_10_project_1/convolution/merged_input", "shape": [1, 1, 384, 96], "dtype": "float32", "quantization": {"dtype": "uint8", "min": -0.9200893114594852, "scale": 0.007132475282631668, "original_dtype": "float32"}}, {"name": "StatefulPartitionedCall/functional_1_1/mobilenetv2_1.00_224_1/block_10_project_BN_1/batchnorm/sub", "shape": [96], "dtype": "float32", "quantization": {"dtype": "uint8", "min": -8.304996385761337, "scale": 0.07349554323682599, "original_dtype": "float32"}}, {"name": "StatefulPartitionedCall/functional_1_1/mobilenetv2_1.00_224_1/block_11_expand_1/convolution/merged_input", "shape": [1, 1, 96, 576], "dtype": "float32", "quantization": {"dtype": "uint8", "min": -0.2127639213029076, "scale": 0.0016366455484839047, "original_dtype": "float32"}}, {"name": "StatefulPartitionedCall/functional_1_1/mobilenetv2_1.00_224_1/block_11_expand_BN_1/batchnorm/sub", "shape": [576], "dtype": "float32", "quantization": {"dtype": "uint8", "min": -1.6869946507846607, "scale": 0.018744385008718452, "original_dtype": "float32"}}, {"name": "StatefulPartitionedCall/functional_1_1/mobilenetv2_1.00_224_1/block_11_depthwise_1/depthwise/ReadVariableOp", "shape": [3, 3, 576, 1], "dtype": "float32", "quantization": {"dtype": "uint8", "min": -3.1214938893037685, "scale": 0.02419762704886642, "original_dtype": "float32"}}, {"name": "StatefulPartitionedCall/functional_1_1/mobilenetv2_1.00_224_1/block_11_depthwise_BN_1/batchnorm/mul", "shape": [576], "dtype": "float32", "quantization": {"dtype": "uint8", "min": 0.2289300560951233, "scale": 0.08087599300870708, "original_dtype": "float32"}}, {"name": "StatefulPartitionedCall/functional_1_1/mobilenetv2_1.00_224_1/block_11_depthwise_BN_1/batchnorm/sub", "shape": [576], "dtype": "float32", "quantization": {"dtype": "uint8", "min": -6.859001696343515, "scale": 0.054007887372783586, "original_dtype": "float32"}}, {"name": "StatefulPartitionedCall/functional_1_1/mobilenetv2_1.00_224_1/block_11_project_1/convolution/merged_input", "shape": [1, 1, 576, 96], "dtype": "float32", "quantization": {"dtype": "uint8", "min": -1.1144269213956945, "scale": 0.0082550142325607, "original_dtype": "float32"}}, {"name": "StatefulPartitionedCall/functional_1_1/mobilenetv2_1.00_224_1/block_12_expand_1/convolution/merged_input", "shape": [1, 1, 96, 576], "dtype": "float32", "quantization": {"dtype": "uint8", "min": -0.25819759228650263, "scale": 0.0018709970455543668, "original_dtype": "float32"}}, {"name": "StatefulPartitionedCall/functional_1_1/mobilenetv2_1.00_224_1/block_12_expand_BN_1/batchnorm/sub", "shape": [576], "dtype": "float32", "quantization": {"dtype": "uint8", "min": -1.9296695414711447, "scale": 0.016492902063855938, "original_dtype": "float32"}}, {"name": "StatefulPartitionedCall/functional_1_1/mobilenetv2_1.00_224_1/block_12_depthwise_1/depthwise/ReadVariableOp", "shape": [3, 3, 576, 1], "dtype": "float32", "quantization": {"dtype": "uint8", "min": -3.062063205943388, "scale": 0.02489482281254787, "original_dtype": "float32"}}, {"name": "StatefulPartitionedCall/functional_1_1/mobilenetv2_1.00_224_1/block_12_depthwise_BN_1/batchnorm/mul", "shape": [576], "dtype": "float32", "quantization": {"dtype": "uint8", "min": 0.24015411734580994, "scale": 0.10423052229133306, "original_dtype": "float32"}}, {"name": "StatefulPartitionedCall/functional_1_1/mobilenetv2_1.00_224_1/block_12_depthwise_BN_1/batchnorm/sub", "shape": [576], "dtype": "float32", "quantization": {"dtype": "uint8", "min": -9.350805260153379, "scale": 0.07248686248180913, "original_dtype": "float32"}}, {"name": "StatefulPartitionedCall/functional_1_1/mobilenetv2_1.00_224_1/block_12_project_1/convolution/merged_input", "shape": [1, 1, 576, 96], "dtype": "float32", "quantization": {"dtype": "uint8", "min": -3.6470391778384936, "scale": 0.023682072583366843, "original_dtype": "float32"}}, {"name": "StatefulPartitionedCall/functional_1_1/mobilenetv2_1.00_224_1/block_13_expand_1/convolution/merged_input", "shape": [1, 1, 96, 576], "dtype": "float32", "quantization": {"dtype": "uint8", "min": -0.1696324335009444, "scale": 0.0014019209380243338, "original_dtype": "float32"}}, {"name": "StatefulPartitionedCall/functional_1_1/mobilenetv2_1.00_224_1/block_13_expand_BN_1/batchnorm/sub", "shape": [576], "dtype": "float32", "quantization": {"dtype": "uint8", "min": -2.8278118694529817, "scale": 0.019774908177992878, "original_dtype": "float32"}}, {"name": "StatefulPartitionedCall/functional_1_1/mobilenetv2_1.00_224_1/block_13_pad_1/Const", "shape": [4, 2], "dtype": "int32"}, {"name": "StatefulPartitionedCall/functional_1_1/mobilenetv2_1.00_224_1/block_13_depthwise_1/depthwise/ReadVariableOp", "shape": [3, 3, 576, 1], "dtype": "float32", "quantization": {"dtype": "uint8", "min": -1.474724993986242, "scale": 0.011172159045350318, "original_dtype": "float32"}}, {"name": "StatefulPartitionedCall/functional_1_1/mobilenetv2_1.00_224_1/block_13_depthwise_BN_1/batchnorm/mul", "shape": [576], "dtype": "float32", "quantization": {"dtype": "uint8", "min": 0.15994666516780853, "scale": 0.012333738161068336, "original_dtype": "float32"}}, {"name": "StatefulPartitionedCall/functional_1_1/mobilenetv2_1.00_224_1/block_13_depthwise_BN_1/batchnorm/sub", "shape": [576], "dtype": "float32", "quantization": {"dtype": "uint8", "min": -4.515961422639735, "scale": 0.03671513351739621, "original_dtype": "float32"}}, {"name": "StatefulPartitionedCall/functional_1_1/mobilenetv2_1.00_224_1/block_13_project_1/convolution/merged_input", "shape": [1, 1, 576, 160], "dtype": "float32", "quantization": {"dtype": "uint8", "min": -1.515842522826849, "scale": 0.011397312201705633, "original_dtype": "float32"}}, {"name": "StatefulPartitionedCall/functional_1_1/mobilenetv2_1.00_224_1/block_13_project_BN_1/batchnorm/sub", "shape": [160], "dtype": "float32", "quantization": {"dtype": "uint8", "min": -18.992555977316464, "scale": 0.15441102420582492, "original_dtype": "float32"}}, {"name": "StatefulPartitionedCall/functional_1_1/mobilenetv2_1.00_224_1/block_14_expand_1/convolution/merged_input", "shape": [1, 1, 160, 960], "dtype": "float32", "quantization": {"dtype": "uint8", "min": -0.38781350991305186, "scale": 0.0027119825868045584, "original_dtype": "float32"}}, {"name": "StatefulPartitionedCall/functional_1_1/mobilenetv2_1.00_224_1/block_14_expand_BN_1/batchnorm/sub", "shape": [960], "dtype": "float32", "quantization": {"dtype": "uint8", "min": -1.875281795800901, "scale": 0.015892218608482212, "original_dtype": "float32"}}, {"name": "StatefulPartitionedCall/functional_1_1/mobilenetv2_1.00_224_1/block_14_depthwise_1/depthwise/ReadVariableOp", "shape": [3, 3, 960, 1], "dtype": "float32", "quantization": {"dtype": "uint8", "min": -3.833873614142923, "scale": 0.026624122320436965, "original_dtype": "float32"}}, {"name": "StatefulPartitionedCall/functional_1_1/mobilenetv2_1.00_224_1/block_14_depthwise_BN_1/batchnorm/mul", "shape": [960], "dtype": "float32", "quantization": {"dtype": "uint8", "min": 0.1949562430381775, "scale": 0.16332810930177277, "original_dtype": "float32"}}, {"name": "StatefulPartitionedCall/functional_1_1/mobilenetv2_1.00_224_1/block_14_depthwise_BN_1/batchnorm/sub", "shape": [960], "dtype": "float32", "quantization": {"dtype": "uint8", "min": -13.466372310414034, "scale": 0.09417043573716108, "original_dtype": "float32"}}, {"name": "StatefulPartitionedCall/functional_1_1/mobilenetv2_1.00_224_1/block_14_project_1/convolution/merged_input", "shape": [1, 1, 960, 160], "dtype": "float32", "quantization": {"dtype": "uint8", "min": -1.0114270834361807, "scale": 0.007840520026637059, "original_dtype": "float32"}}, {"name": "StatefulPartitionedCall/functional_1_1/mobilenetv2_1.00_224_1/block_15_expand_1/convolution/merged_input", "shape": [1, 1, 160, 960], "dtype": "float32", "quantization": {"dtype": "uint8", "min": -0.18841400070517672, "scale": 0.0016383826148276236, "original_dtype": "float32"}}, {"name": "StatefulPartitionedCall/functional_1_1/mobilenetv2_1.00_224_1/block_15_expand_BN_1/batchnorm/sub", "shape": [960], "dtype": "float32", "quantization": {"dtype": "uint8", "min": -2.0692997203153722, "scale": 0.01831238690544577, "original_dtype": "float32"}}, {"name": "StatefulPartitionedCall/functional_1_1/mobilenetv2_1.00_224_1/block_15_depthwise_1/depthwise/ReadVariableOp", "shape": [3, 3, 960, 1], "dtype": "float32", "quantization": {"dtype": "uint8", "min": -3.7878070008520988, "scale": 0.028479751886106006, "original_dtype": "float32"}}, {"name": "StatefulPartitionedCall/functional_1_1/mobilenetv2_1.00_224_1/block_15_depthwise_BN_1/batchnorm/mul", "shape": [960], "dtype": "float32", "quantization": {"dtype": "uint8", "min": 0.12544676661491394, "scale": 0.1792645605171428, "original_dtype": "float32"}}, {"name": "StatefulPartitionedCall/functional_1_1/mobilenetv2_1.00_224_1/block_15_depthwise_BN_1/batchnorm/sub", "shape": [960], "dtype": "float32", "quantization": {"dtype": "uint8", "min": -14.472859227423575, "scale": 0.0866638277091232, "original_dtype": "float32"}}, {"name": "StatefulPartitionedCall/functional_1_1/mobilenetv2_1.00_224_1/block_15_project_1/convolution/merged_input", "shape": [1, 1, 960, 160], "dtype": "float32", "quantization": {"dtype": "uint8", "min": -5.216469602023854, "scale": 0.040437748852898095, "original_dtype": "float32"}}, {"name": "StatefulPartitionedCall/functional_1_1/mobilenetv2_1.00_224_1/block_16_expand_1/convolution/merged_input", "shape": [1, 1, 160, 960], "dtype": "float32", "quantization": {"dtype": "uint8", "min": -0.24402939677238467, "scale": 0.002068045735359192, "original_dtype": "float32"}}, {"name": "StatefulPartitionedCall/functional_1_1/mobilenetv2_1.00_224_1/block_16_expand_BN_1/batchnorm/sub", "shape": [960], "dtype": "float32", "quantization": {"dtype": "uint8", "min": -1.8335550102533078, "scale": 0.015538601781807694, "original_dtype": "float32"}}, {"name": "StatefulPartitionedCall/functional_1_1/mobilenetv2_1.00_224_1/block_16_depthwise_1/depthwise/ReadVariableOp", "shape": [3, 3, 960, 1], "dtype": "float32", "quantization": {"dtype": "uint8", "min": -2.803989522597369, "scale": 0.023366579354978077, "original_dtype": "float32"}}, {"name": "StatefulPartitionedCall/functional_1_1/mobilenetv2_1.00_224_1/block_16_depthwise_BN_1/batchnorm/mul", "shape": [960], "dtype": "float32", "quantization": {"dtype": "uint8", "min": 0.1634591519832611, "scale": 0.30528962623839284, "original_dtype": "float32"}}, {"name": "StatefulPartitionedCall/functional_1_1/mobilenetv2_1.00_224_1/block_16_depthwise_BN_1/batchnorm/sub", "shape": [960], "dtype": "float32", "quantization": {"dtype": "uint8", "min": -10.450870457817528, "scale": 0.06333860883525774, "original_dtype": "float32"}}, {"name": "StatefulPartitionedCall/functional_1_1/mobilenetv2_1.00_224_1/block_16_project_1/convolution/merged_input", "shape": [1, 1, 960, 320], "dtype": "float32", "quantization": {"dtype": "uint8", "min": -0.828612673516367, "scale": 0.007532842486512427, "original_dtype": "float32"}}, {"name": "StatefulPartitionedCall/functional_1_1/mobilenetv2_1.00_224_1/block_16_project_BN_1/batchnorm/sub", "shape": [320], "dtype": "float32", "quantization": {"dtype": "uint8", "min": -10.333409387925093, "scale": 0.11111192890242035, "original_dtype": "float32"}}, {"name": "StatefulPartitionedCall/functional_1_1/mobilenetv2_1.00_224_1/Conv_1_1/convolution/merged_input", "shape": [1, 1, 320, 1280], "dtype": "float32", "quantization": {"dtype": "uint8", "min": -0.6509997681075451, "scale": 0.005207998144860361, "original_dtype": "float32"}}, {"name": "StatefulPartitionedCall/functional_1_1/mobilenetv2_1.00_224_1/Conv_1_bn_1/batchnorm/sub", "shape": [1280], "dtype": "float32", "quantization": {"dtype": "uint8", "min": -5.498420238494873, "scale": 0.007116063435872396, "original_dtype": "float32"}}, {"name": "StatefulPartitionedCall/functional_1_1/global_average_pooling2d_1/Mean/reduction_indices", "shape": [2], "dtype": "int32"}, {"name": "StatefulPartitionedCall/functional_1_1/dense_1/Cast/ReadVariableOp", "shape": [1280, 4], "dtype": "float32", "quantization": {"dtype": "uint8", "min": -0.17589186827341716, "scale": 0.0013426860173543294, "original_dtype": "float32"}}, {"name": "StatefulPartitionedCall/functional_1_1/dense_1/BiasAdd/ReadVariableOp", "shape": [4], "dtype": "float32", "quantization": {"dtype": "uint8", "min": -0.007248077870291822, "scale": 0.00012080129783819703, "original_dtype": "float32"}}]}]}